node {
  name: "global_step/Initializer/zeros"
  op: "Const"
  attr {
    key: "_class"
    value {
      list {
        s: "loc:@global_step"
      }
    }
  }
  attr {
    key: "_output_shapes"
    value {
      list {
        shape {
        }
      }
    }
  }
  attr {
    key: "dtype"
    value {
      type: DT_INT64
    }
  }
  attr {
    key: "value"
    value {
      tensor {
        dtype: DT_INT64
        tensor_shape {
        }
        int64_val: 0
      }
    }
  }
}
node {
  name: "global_step"
  op: "VariableV2"
  attr {
    key: "_class"
    value {
      list {
        s: "loc:@global_step"
      }
    }
  }
  attr {
    key: "_output_shapes"
    value {
      list {
        shape {
        }
      }
    }
  }
  attr {
    key: "container"
    value {
      s: ""
    }
  }
  attr {
    key: "dtype"
    value {
      type: DT_INT64
    }
  }
  attr {
    key: "shape"
    value {
      shape {
      }
    }
  }
  attr {
    key: "shared_name"
    value {
      s: ""
    }
  }
}
node {
  name: "global_step/Assign"
  op: "Assign"
  input: "global_step"
  input: "global_step/Initializer/zeros"
  attr {
    key: "T"
    value {
      type: DT_INT64
    }
  }
  attr {
    key: "_class"
    value {
      list {
        s: "loc:@global_step"
      }
    }
  }
  attr {
    key: "_output_shapes"
    value {
      list {
        shape {
        }
      }
    }
  }
  attr {
    key: "use_locking"
    value {
      b: true
    }
  }
  attr {
    key: "validate_shape"
    value {
      b: true
    }
  }
}
node {
  name: "global_step/read"
  op: "Identity"
  input: "global_step"
  attr {
    key: "T"
    value {
      type: DT_INT64
    }
  }
  attr {
    key: "_class"
    value {
      list {
        s: "loc:@global_step"
      }
    }
  }
  attr {
    key: "_output_shapes"
    value {
      list {
        shape {
        }
      }
    }
  }
}
node {
  name: "input_producer/Const"
  op: "Const"
  device: "/device:CPU:0"
  attr {
    key: "_output_shapes"
    value {
      list {
        shape {
          dim {
            size: 1
          }
        }
      }
    }
  }
  attr {
    key: "dtype"
    value {
      type: DT_STRING
    }
  }
  attr {
    key: "value"
    value {
      tensor {
        dtype: DT_STRING
        tensor_shape {
          dim {
            size: 1
          }
        }
        string_val: "gs://smiling-beaming-abalone/abalone_train.csv"
      }
    }
  }
}
node {
  name: "input_producer/Size"
  op: "Const"
  device: "/device:CPU:0"
  attr {
    key: "_output_shapes"
    value {
      list {
        shape {
        }
      }
    }
  }
  attr {
    key: "dtype"
    value {
      type: DT_INT32
    }
  }
  attr {
    key: "value"
    value {
      tensor {
        dtype: DT_INT32
        tensor_shape {
        }
        int_val: 1
      }
    }
  }
}
node {
  name: "input_producer/Greater/y"
  op: "Const"
  device: "/device:CPU:0"
  attr {
    key: "_output_shapes"
    value {
      list {
        shape {
        }
      }
    }
  }
  attr {
    key: "dtype"
    value {
      type: DT_INT32
    }
  }
  attr {
    key: "value"
    value {
      tensor {
        dtype: DT_INT32
        tensor_shape {
        }
        int_val: 0
      }
    }
  }
}
node {
  name: "input_producer/Greater"
  op: "Greater"
  input: "input_producer/Size"
  input: "input_producer/Greater/y"
  device: "/device:CPU:0"
  attr {
    key: "T"
    value {
      type: DT_INT32
    }
  }
  attr {
    key: "_output_shapes"
    value {
      list {
        shape {
        }
      }
    }
  }
}
node {
  name: "input_producer/Assert/Const"
  op: "Const"
  device: "/device:CPU:0"
  attr {
    key: "_output_shapes"
    value {
      list {
        shape {
        }
      }
    }
  }
  attr {
    key: "dtype"
    value {
      type: DT_STRING
    }
  }
  attr {
    key: "value"
    value {
      tensor {
        dtype: DT_STRING
        tensor_shape {
        }
        string_val: "string_input_producer requires a non-null input tensor"
      }
    }
  }
}
node {
  name: "input_producer/Assert/Assert/data_0"
  op: "Const"
  device: "/device:CPU:0"
  attr {
    key: "_output_shapes"
    value {
      list {
        shape {
        }
      }
    }
  }
  attr {
    key: "dtype"
    value {
      type: DT_STRING
    }
  }
  attr {
    key: "value"
    value {
      tensor {
        dtype: DT_STRING
        tensor_shape {
        }
        string_val: "string_input_producer requires a non-null input tensor"
      }
    }
  }
}
node {
  name: "input_producer/Assert/Assert"
  op: "Assert"
  input: "input_producer/Greater"
  input: "input_producer/Assert/Assert/data_0"
  device: "/device:CPU:0"
  attr {
    key: "T"
    value {
      list {
        type: DT_STRING
      }
    }
  }
  attr {
    key: "summarize"
    value {
      i: 3
    }
  }
}
node {
  name: "input_producer/Identity"
  op: "Identity"
  input: "input_producer/Const"
  input: "^input_producer/Assert/Assert"
  device: "/device:CPU:0"
  attr {
    key: "T"
    value {
      type: DT_STRING
    }
  }
  attr {
    key: "_output_shapes"
    value {
      list {
        shape {
          dim {
            size: 1
          }
        }
      }
    }
  }
}
node {
  name: "input_producer/RandomShuffle"
  op: "RandomShuffle"
  input: "input_producer/Identity"
  device: "/device:CPU:0"
  attr {
    key: "T"
    value {
      type: DT_STRING
    }
  }
  attr {
    key: "_output_shapes"
    value {
      list {
        shape {
          dim {
            size: 1
          }
        }
      }
    }
  }
  attr {
    key: "seed"
    value {
      i: 0
    }
  }
  attr {
    key: "seed2"
    value {
      i: 0
    }
  }
}
node {
  name: "input_producer"
  op: "FIFOQueueV2"
  device: "/device:CPU:0"
  attr {
    key: "_output_shapes"
    value {
      list {
        shape {
        }
      }
    }
  }
  attr {
    key: "capacity"
    value {
      i: 32
    }
  }
  attr {
    key: "component_types"
    value {
      list {
        type: DT_STRING
      }
    }
  }
  attr {
    key: "container"
    value {
      s: ""
    }
  }
  attr {
    key: "shapes"
    value {
      list {
        shape {
        }
      }
    }
  }
  attr {
    key: "shared_name"
    value {
      s: ""
    }
  }
}
node {
  name: "input_producer/input_producer_EnqueueMany"
  op: "QueueEnqueueManyV2"
  input: "input_producer"
  input: "input_producer/RandomShuffle"
  device: "/device:CPU:0"
  attr {
    key: "Tcomponents"
    value {
      list {
        type: DT_STRING
      }
    }
  }
  attr {
    key: "timeout_ms"
    value {
      i: -1
    }
  }
}
node {
  name: "input_producer/input_producer_Close"
  op: "QueueCloseV2"
  input: "input_producer"
  device: "/device:CPU:0"
  attr {
    key: "cancel_pending_enqueues"
    value {
      b: false
    }
  }
}
node {
  name: "input_producer/input_producer_Close_1"
  op: "QueueCloseV2"
  input: "input_producer"
  device: "/device:CPU:0"
  attr {
    key: "cancel_pending_enqueues"
    value {
      b: true
    }
  }
}
node {
  name: "input_producer/input_producer_Size"
  op: "QueueSizeV2"
  input: "input_producer"
  device: "/device:CPU:0"
  attr {
    key: "_output_shapes"
    value {
      list {
        shape {
        }
      }
    }
  }
}
node {
  name: "input_producer/Cast"
  op: "Cast"
  input: "input_producer/input_producer_Size"
  device: "/device:CPU:0"
  attr {
    key: "DstT"
    value {
      type: DT_FLOAT
    }
  }
  attr {
    key: "SrcT"
    value {
      type: DT_INT32
    }
  }
  attr {
    key: "_output_shapes"
    value {
      list {
        shape {
        }
      }
    }
  }
}
node {
  name: "input_producer/mul/y"
  op: "Const"
  device: "/device:CPU:0"
  attr {
    key: "_output_shapes"
    value {
      list {
        shape {
        }
      }
    }
  }
  attr {
    key: "dtype"
    value {
      type: DT_FLOAT
    }
  }
  attr {
    key: "value"
    value {
      tensor {
        dtype: DT_FLOAT
        tensor_shape {
        }
        float_val: 0.03125
      }
    }
  }
}
node {
  name: "input_producer/mul"
  op: "Mul"
  input: "input_producer/Cast"
  input: "input_producer/mul/y"
  device: "/device:CPU:0"
  attr {
    key: "T"
    value {
      type: DT_FLOAT
    }
  }
  attr {
    key: "_output_shapes"
    value {
      list {
        shape {
        }
      }
    }
  }
}
node {
  name: "input_producer/fraction_of_32_full/tags"
  op: "Const"
  device: "/device:CPU:0"
  attr {
    key: "_output_shapes"
    value {
      list {
        shape {
        }
      }
    }
  }
  attr {
    key: "dtype"
    value {
      type: DT_STRING
    }
  }
  attr {
    key: "value"
    value {
      tensor {
        dtype: DT_STRING
        tensor_shape {
        }
        string_val: "input_producer/fraction_of_32_full"
      }
    }
  }
}
node {
  name: "input_producer/fraction_of_32_full"
  op: "ScalarSummary"
  input: "input_producer/fraction_of_32_full/tags"
  input: "input_producer/mul"
  device: "/device:CPU:0"
  attr {
    key: "T"
    value {
      type: DT_FLOAT
    }
  }
  attr {
    key: "_output_shapes"
    value {
      list {
        shape {
        }
      }
    }
  }
}
node {
  name: "TextLineReaderV2"
  op: "TextLineReaderV2"
  device: "/device:CPU:0"
  attr {
    key: "_output_shapes"
    value {
      list {
        shape {
        }
      }
    }
  }
  attr {
    key: "container"
    value {
      s: ""
    }
  }
  attr {
    key: "shared_name"
    value {
      s: ""
    }
  }
  attr {
    key: "skip_header_lines"
    value {
      i: 0
    }
  }
}
node {
  name: "ReaderReadUpToV2/num_records"
  op: "Const"
  device: "/device:CPU:0"
  attr {
    key: "_output_shapes"
    value {
      list {
        shape {
        }
      }
    }
  }
  attr {
    key: "dtype"
    value {
      type: DT_INT64
    }
  }
  attr {
    key: "value"
    value {
      tensor {
        dtype: DT_INT64
        tensor_shape {
        }
        int64_val: 1
      }
    }
  }
}
node {
  name: "ReaderReadUpToV2"
  op: "ReaderReadUpToV2"
  input: "TextLineReaderV2"
  input: "input_producer"
  input: "ReaderReadUpToV2/num_records"
  device: "/device:CPU:0"
  attr {
    key: "_output_shapes"
    value {
      list {
        shape {
          dim {
            size: -1
          }
        }
        shape {
          dim {
            size: -1
          }
        }
      }
    }
  }
}
node {
  name: "DecodeCSV/record_defaults_0"
  op: "Const"
  device: "/device:CPU:0"
  attr {
    key: "_output_shapes"
    value {
      list {
        shape {
          dim {
            size: 1
          }
        }
      }
    }
  }
  attr {
    key: "dtype"
    value {
      type: DT_FLOAT
    }
  }
  attr {
    key: "value"
    value {
      tensor {
        dtype: DT_FLOAT
        tensor_shape {
          dim {
            size: 1
          }
        }
        float_val: 0.0
      }
    }
  }
}
node {
  name: "DecodeCSV/record_defaults_1"
  op: "Const"
  device: "/device:CPU:0"
  attr {
    key: "_output_shapes"
    value {
      list {
        shape {
          dim {
            size: 1
          }
        }
      }
    }
  }
  attr {
    key: "dtype"
    value {
      type: DT_FLOAT
    }
  }
  attr {
    key: "value"
    value {
      tensor {
        dtype: DT_FLOAT
        tensor_shape {
          dim {
            size: 1
          }
        }
        float_val: 0.0
      }
    }
  }
}
node {
  name: "DecodeCSV/record_defaults_2"
  op: "Const"
  device: "/device:CPU:0"
  attr {
    key: "_output_shapes"
    value {
      list {
        shape {
          dim {
            size: 1
          }
        }
      }
    }
  }
  attr {
    key: "dtype"
    value {
      type: DT_FLOAT
    }
  }
  attr {
    key: "value"
    value {
      tensor {
        dtype: DT_FLOAT
        tensor_shape {
          dim {
            size: 1
          }
        }
        float_val: 0.0
      }
    }
  }
}
node {
  name: "DecodeCSV/record_defaults_3"
  op: "Const"
  device: "/device:CPU:0"
  attr {
    key: "_output_shapes"
    value {
      list {
        shape {
          dim {
            size: 1
          }
        }
      }
    }
  }
  attr {
    key: "dtype"
    value {
      type: DT_FLOAT
    }
  }
  attr {
    key: "value"
    value {
      tensor {
        dtype: DT_FLOAT
        tensor_shape {
          dim {
            size: 1
          }
        }
        float_val: 0.0
      }
    }
  }
}
node {
  name: "DecodeCSV/record_defaults_4"
  op: "Const"
  device: "/device:CPU:0"
  attr {
    key: "_output_shapes"
    value {
      list {
        shape {
          dim {
            size: 1
          }
        }
      }
    }
  }
  attr {
    key: "dtype"
    value {
      type: DT_FLOAT
    }
  }
  attr {
    key: "value"
    value {
      tensor {
        dtype: DT_FLOAT
        tensor_shape {
          dim {
            size: 1
          }
        }
        float_val: 0.0
      }
    }
  }
}
node {
  name: "DecodeCSV/record_defaults_5"
  op: "Const"
  device: "/device:CPU:0"
  attr {
    key: "_output_shapes"
    value {
      list {
        shape {
          dim {
            size: 1
          }
        }
      }
    }
  }
  attr {
    key: "dtype"
    value {
      type: DT_FLOAT
    }
  }
  attr {
    key: "value"
    value {
      tensor {
        dtype: DT_FLOAT
        tensor_shape {
          dim {
            size: 1
          }
        }
        float_val: 0.0
      }
    }
  }
}
node {
  name: "DecodeCSV/record_defaults_6"
  op: "Const"
  device: "/device:CPU:0"
  attr {
    key: "_output_shapes"
    value {
      list {
        shape {
          dim {
            size: 1
          }
        }
      }
    }
  }
  attr {
    key: "dtype"
    value {
      type: DT_FLOAT
    }
  }
  attr {
    key: "value"
    value {
      tensor {
        dtype: DT_FLOAT
        tensor_shape {
          dim {
            size: 1
          }
        }
        float_val: 0.0
      }
    }
  }
}
node {
  name: "DecodeCSV/record_defaults_7"
  op: "Const"
  device: "/device:CPU:0"
  attr {
    key: "_output_shapes"
    value {
      list {
        shape {
          dim {
            size: 1
          }
        }
      }
    }
  }
  attr {
    key: "dtype"
    value {
      type: DT_INT32
    }
  }
  attr {
    key: "value"
    value {
      tensor {
        dtype: DT_INT32
        tensor_shape {
          dim {
            size: 1
          }
        }
        int_val: 0
      }
    }
  }
}
node {
  name: "DecodeCSV"
  op: "DecodeCSV"
  input: "ReaderReadUpToV2:1"
  input: "DecodeCSV/record_defaults_0"
  input: "DecodeCSV/record_defaults_1"
  input: "DecodeCSV/record_defaults_2"
  input: "DecodeCSV/record_defaults_3"
  input: "DecodeCSV/record_defaults_4"
  input: "DecodeCSV/record_defaults_5"
  input: "DecodeCSV/record_defaults_6"
  input: "DecodeCSV/record_defaults_7"
  device: "/device:CPU:0"
  attr {
    key: "OUT_TYPE"
    value {
      list {
        type: DT_FLOAT
        type: DT_FLOAT
        type: DT_FLOAT
        type: DT_FLOAT
        type: DT_FLOAT
        type: DT_FLOAT
        type: DT_FLOAT
        type: DT_INT32
      }
    }
  }
  attr {
    key: "_output_shapes"
    value {
      list {
        shape {
          dim {
            size: -1
          }
        }
        shape {
          dim {
            size: -1
          }
        }
        shape {
          dim {
            size: -1
          }
        }
        shape {
          dim {
            size: -1
          }
        }
        shape {
          dim {
            size: -1
          }
        }
        shape {
          dim {
            size: -1
          }
        }
        shape {
          dim {
            size: -1
          }
        }
        shape {
          dim {
            size: -1
          }
        }
      }
    }
  }
  attr {
    key: "field_delim"
    value {
      s: ","
    }
  }
  attr {
    key: "use_quote_delim"
    value {
      b: true
    }
  }
}
node {
  name: "ExpandDims/dim"
  op: "Const"
  device: "/device:CPU:0"
  attr {
    key: "_output_shapes"
    value {
      list {
        shape {
        }
      }
    }
  }
  attr {
    key: "dtype"
    value {
      type: DT_INT32
    }
  }
  attr {
    key: "value"
    value {
      tensor {
        dtype: DT_INT32
        tensor_shape {
        }
        int_val: -1
      }
    }
  }
}
node {
  name: "ExpandDims"
  op: "ExpandDims"
  input: "DecodeCSV:4"
  input: "ExpandDims/dim"
  device: "/device:CPU:0"
  attr {
    key: "T"
    value {
      type: DT_FLOAT
    }
  }
  attr {
    key: "Tdim"
    value {
      type: DT_INT32
    }
  }
  attr {
    key: "_output_shapes"
    value {
      list {
        shape {
          dim {
            size: -1
          }
          dim {
            size: 1
          }
        }
      }
    }
  }
}
node {
  name: "ExpandDims_1/dim"
  op: "Const"
  device: "/device:CPU:0"
  attr {
    key: "_output_shapes"
    value {
      list {
        shape {
        }
      }
    }
  }
  attr {
    key: "dtype"
    value {
      type: DT_INT32
    }
  }
  attr {
    key: "value"
    value {
      tensor {
        dtype: DT_INT32
        tensor_shape {
        }
        int_val: -1
      }
    }
  }
}
node {
  name: "ExpandDims_1"
  op: "ExpandDims"
  input: "DecodeCSV:1"
  input: "ExpandDims_1/dim"
  device: "/device:CPU:0"
  attr {
    key: "T"
    value {
      type: DT_FLOAT
    }
  }
  attr {
    key: "Tdim"
    value {
      type: DT_INT32
    }
  }
  attr {
    key: "_output_shapes"
    value {
      list {
        shape {
          dim {
            size: -1
          }
          dim {
            size: 1
          }
        }
      }
    }
  }
}
node {
  name: "ExpandDims_2/dim"
  op: "Const"
  device: "/device:CPU:0"
  attr {
    key: "_output_shapes"
    value {
      list {
        shape {
        }
      }
    }
  }
  attr {
    key: "dtype"
    value {
      type: DT_INT32
    }
  }
  attr {
    key: "value"
    value {
      tensor {
        dtype: DT_INT32
        tensor_shape {
        }
        int_val: -1
      }
    }
  }
}
node {
  name: "ExpandDims_2"
  op: "ExpandDims"
  input: "DecodeCSV:3"
  input: "ExpandDims_2/dim"
  device: "/device:CPU:0"
  attr {
    key: "T"
    value {
      type: DT_FLOAT
    }
  }
  attr {
    key: "Tdim"
    value {
      type: DT_INT32
    }
  }
  attr {
    key: "_output_shapes"
    value {
      list {
        shape {
          dim {
            size: -1
          }
          dim {
            size: 1
          }
        }
      }
    }
  }
}
node {
  name: "ExpandDims_3/dim"
  op: "Const"
  device: "/device:CPU:0"
  attr {
    key: "_output_shapes"
    value {
      list {
        shape {
        }
      }
    }
  }
  attr {
    key: "dtype"
    value {
      type: DT_INT32
    }
  }
  attr {
    key: "value"
    value {
      tensor {
        dtype: DT_INT32
        tensor_shape {
        }
        int_val: -1
      }
    }
  }
}
node {
  name: "ExpandDims_3"
  op: "ExpandDims"
  input: "DecodeCSV:7"
  input: "ExpandDims_3/dim"
  device: "/device:CPU:0"
  attr {
    key: "T"
    value {
      type: DT_INT32
    }
  }
  attr {
    key: "Tdim"
    value {
      type: DT_INT32
    }
  }
  attr {
    key: "_output_shapes"
    value {
      list {
        shape {
          dim {
            size: -1
          }
          dim {
            size: 1
          }
        }
      }
    }
  }
}
node {
  name: "ExpandDims_4/dim"
  op: "Const"
  device: "/device:CPU:0"
  attr {
    key: "_output_shapes"
    value {
      list {
        shape {
        }
      }
    }
  }
  attr {
    key: "dtype"
    value {
      type: DT_INT32
    }
  }
  attr {
    key: "value"
    value {
      tensor {
        dtype: DT_INT32
        tensor_shape {
        }
        int_val: -1
      }
    }
  }
}
node {
  name: "ExpandDims_4"
  op: "ExpandDims"
  input: "DecodeCSV:6"
  input: "ExpandDims_4/dim"
  device: "/device:CPU:0"
  attr {
    key: "T"
    value {
      type: DT_FLOAT
    }
  }
  attr {
    key: "Tdim"
    value {
      type: DT_INT32
    }
  }
  attr {
    key: "_output_shapes"
    value {
      list {
        shape {
          dim {
            size: -1
          }
          dim {
            size: 1
          }
        }
      }
    }
  }
}
node {
  name: "ExpandDims_5/dim"
  op: "Const"
  device: "/device:CPU:0"
  attr {
    key: "_output_shapes"
    value {
      list {
        shape {
        }
      }
    }
  }
  attr {
    key: "dtype"
    value {
      type: DT_INT32
    }
  }
  attr {
    key: "value"
    value {
      tensor {
        dtype: DT_INT32
        tensor_shape {
        }
        int_val: -1
      }
    }
  }
}
node {
  name: "ExpandDims_5"
  op: "ExpandDims"
  input: "DecodeCSV:5"
  input: "ExpandDims_5/dim"
  device: "/device:CPU:0"
  attr {
    key: "T"
    value {
      type: DT_FLOAT
    }
  }
  attr {
    key: "Tdim"
    value {
      type: DT_INT32
    }
  }
  attr {
    key: "_output_shapes"
    value {
      list {
        shape {
          dim {
            size: -1
          }
          dim {
            size: 1
          }
        }
      }
    }
  }
}
node {
  name: "ExpandDims_6/dim"
  op: "Const"
  device: "/device:CPU:0"
  attr {
    key: "_output_shapes"
    value {
      list {
        shape {
        }
      }
    }
  }
  attr {
    key: "dtype"
    value {
      type: DT_INT32
    }
  }
  attr {
    key: "value"
    value {
      tensor {
        dtype: DT_INT32
        tensor_shape {
        }
        int_val: -1
      }
    }
  }
}
node {
  name: "ExpandDims_6"
  op: "ExpandDims"
  input: "DecodeCSV:2"
  input: "ExpandDims_6/dim"
  device: "/device:CPU:0"
  attr {
    key: "T"
    value {
      type: DT_FLOAT
    }
  }
  attr {
    key: "Tdim"
    value {
      type: DT_INT32
    }
  }
  attr {
    key: "_output_shapes"
    value {
      list {
        shape {
          dim {
            size: -1
          }
          dim {
            size: 1
          }
        }
      }
    }
  }
}
node {
  name: "ExpandDims_7/dim"
  op: "Const"
  device: "/device:CPU:0"
  attr {
    key: "_output_shapes"
    value {
      list {
        shape {
        }
      }
    }
  }
  attr {
    key: "dtype"
    value {
      type: DT_INT32
    }
  }
  attr {
    key: "value"
    value {
      tensor {
        dtype: DT_INT32
        tensor_shape {
        }
        int_val: -1
      }
    }
  }
}
node {
  name: "ExpandDims_7"
  op: "ExpandDims"
  input: "DecodeCSV"
  input: "ExpandDims_7/dim"
  device: "/device:CPU:0"
  attr {
    key: "T"
    value {
      type: DT_FLOAT
    }
  }
  attr {
    key: "Tdim"
    value {
      type: DT_INT32
    }
  }
  attr {
    key: "_output_shapes"
    value {
      list {
        shape {
          dim {
            size: -1
          }
          dim {
            size: 1
          }
        }
      }
    }
  }
}
node {
  name: "shuffle_batch/Const"
  op: "Const"
  device: "/device:CPU:0"
  attr {
    key: "_output_shapes"
    value {
      list {
        shape {
        }
      }
    }
  }
  attr {
    key: "dtype"
    value {
      type: DT_BOOL
    }
  }
  attr {
    key: "value"
    value {
      tensor {
        dtype: DT_BOOL
        tensor_shape {
        }
        bool_val: true
      }
    }
  }
}
node {
  name: "shuffle_batch/random_shuffle_queue"
  op: "RandomShuffleQueueV2"
  device: "/device:CPU:0"
  attr {
    key: "_output_shapes"
    value {
      list {
        shape {
        }
      }
    }
  }
  attr {
    key: "capacity"
    value {
      i: 10
    }
  }
  attr {
    key: "component_types"
    value {
      list {
        type: DT_FLOAT
        type: DT_FLOAT
        type: DT_FLOAT
        type: DT_INT32
        type: DT_FLOAT
        type: DT_FLOAT
        type: DT_FLOAT
        type: DT_FLOAT
      }
    }
  }
  attr {
    key: "container"
    value {
      s: ""
    }
  }
  attr {
    key: "min_after_dequeue"
    value {
      i: 3
    }
  }
  attr {
    key: "seed"
    value {
      i: 0
    }
  }
  attr {
    key: "seed2"
    value {
      i: 0
    }
  }
  attr {
    key: "shapes"
    value {
      list {
        shape {
          dim {
            size: 1
          }
        }
        shape {
          dim {
            size: 1
          }
        }
        shape {
          dim {
            size: 1
          }
        }
        shape {
          dim {
            size: 1
          }
        }
        shape {
          dim {
            size: 1
          }
        }
        shape {
          dim {
            size: 1
          }
        }
        shape {
          dim {
            size: 1
          }
        }
        shape {
          dim {
            size: 1
          }
        }
      }
    }
  }
  attr {
    key: "shared_name"
    value {
      s: ""
    }
  }
}
node {
  name: "shuffle_batch/random_shuffle_queue_EnqueueMany"
  op: "QueueEnqueueManyV2"
  input: "shuffle_batch/random_shuffle_queue"
  input: "ExpandDims_1"
  input: "ExpandDims_6"
  input: "ExpandDims_7"
  input: "ExpandDims_3"
  input: "ExpandDims_4"
  input: "ExpandDims"
  input: "ExpandDims_5"
  input: "ExpandDims_2"
  device: "/device:CPU:0"
  attr {
    key: "Tcomponents"
    value {
      list {
        type: DT_FLOAT
        type: DT_FLOAT
        type: DT_FLOAT
        type: DT_INT32
        type: DT_FLOAT
        type: DT_FLOAT
        type: DT_FLOAT
        type: DT_FLOAT
      }
    }
  }
  attr {
    key: "timeout_ms"
    value {
      i: -1
    }
  }
}
node {
  name: "shuffle_batch/random_shuffle_queue_Close"
  op: "QueueCloseV2"
  input: "shuffle_batch/random_shuffle_queue"
  device: "/device:CPU:0"
  attr {
    key: "cancel_pending_enqueues"
    value {
      b: false
    }
  }
}
node {
  name: "shuffle_batch/random_shuffle_queue_Close_1"
  op: "QueueCloseV2"
  input: "shuffle_batch/random_shuffle_queue"
  device: "/device:CPU:0"
  attr {
    key: "cancel_pending_enqueues"
    value {
      b: true
    }
  }
}
node {
  name: "shuffle_batch/random_shuffle_queue_Size"
  op: "QueueSizeV2"
  input: "shuffle_batch/random_shuffle_queue"
  device: "/device:CPU:0"
  attr {
    key: "_output_shapes"
    value {
      list {
        shape {
        }
      }
    }
  }
}
node {
  name: "shuffle_batch/sub/y"
  op: "Const"
  device: "/device:CPU:0"
  attr {
    key: "_output_shapes"
    value {
      list {
        shape {
        }
      }
    }
  }
  attr {
    key: "dtype"
    value {
      type: DT_INT32
    }
  }
  attr {
    key: "value"
    value {
      tensor {
        dtype: DT_INT32
        tensor_shape {
        }
        int_val: 3
      }
    }
  }
}
node {
  name: "shuffle_batch/sub"
  op: "Sub"
  input: "shuffle_batch/random_shuffle_queue_Size"
  input: "shuffle_batch/sub/y"
  device: "/device:CPU:0"
  attr {
    key: "T"
    value {
      type: DT_INT32
    }
  }
  attr {
    key: "_output_shapes"
    value {
      list {
        shape {
        }
      }
    }
  }
}
node {
  name: "shuffle_batch/Maximum/x"
  op: "Const"
  device: "/device:CPU:0"
  attr {
    key: "_output_shapes"
    value {
      list {
        shape {
        }
      }
    }
  }
  attr {
    key: "dtype"
    value {
      type: DT_INT32
    }
  }
  attr {
    key: "value"
    value {
      tensor {
        dtype: DT_INT32
        tensor_shape {
        }
        int_val: 0
      }
    }
  }
}
node {
  name: "shuffle_batch/Maximum"
  op: "Maximum"
  input: "shuffle_batch/Maximum/x"
  input: "shuffle_batch/sub"
  device: "/device:CPU:0"
  attr {
    key: "T"
    value {
      type: DT_INT32
    }
  }
  attr {
    key: "_output_shapes"
    value {
      list {
        shape {
        }
      }
    }
  }
}
node {
  name: "shuffle_batch/Cast"
  op: "Cast"
  input: "shuffle_batch/Maximum"
  device: "/device:CPU:0"
  attr {
    key: "DstT"
    value {
      type: DT_FLOAT
    }
  }
  attr {
    key: "SrcT"
    value {
      type: DT_INT32
    }
  }
  attr {
    key: "_output_shapes"
    value {
      list {
        shape {
        }
      }
    }
  }
}
node {
  name: "shuffle_batch/mul/y"
  op: "Const"
  device: "/device:CPU:0"
  attr {
    key: "_output_shapes"
    value {
      list {
        shape {
        }
      }
    }
  }
  attr {
    key: "dtype"
    value {
      type: DT_FLOAT
    }
  }
  attr {
    key: "value"
    value {
      tensor {
        dtype: DT_FLOAT
        tensor_shape {
        }
        float_val: 0.142857149243
      }
    }
  }
}
node {
  name: "shuffle_batch/mul"
  op: "Mul"
  input: "shuffle_batch/Cast"
  input: "shuffle_batch/mul/y"
  device: "/device:CPU:0"
  attr {
    key: "T"
    value {
      type: DT_FLOAT
    }
  }
  attr {
    key: "_output_shapes"
    value {
      list {
        shape {
        }
      }
    }
  }
}
node {
  name: "shuffle_batch/fraction_over_3_of_7_full/tags"
  op: "Const"
  device: "/device:CPU:0"
  attr {
    key: "_output_shapes"
    value {
      list {
        shape {
        }
      }
    }
  }
  attr {
    key: "dtype"
    value {
      type: DT_STRING
    }
  }
  attr {
    key: "value"
    value {
      tensor {
        dtype: DT_STRING
        tensor_shape {
        }
        string_val: "shuffle_batch/fraction_over_3_of_7_full"
      }
    }
  }
}
node {
  name: "shuffle_batch/fraction_over_3_of_7_full"
  op: "ScalarSummary"
  input: "shuffle_batch/fraction_over_3_of_7_full/tags"
  input: "shuffle_batch/mul"
  device: "/device:CPU:0"
  attr {
    key: "T"
    value {
      type: DT_FLOAT
    }
  }
  attr {
    key: "_output_shapes"
    value {
      list {
        shape {
        }
      }
    }
  }
}
node {
  name: "shuffle_batch/n"
  op: "Const"
  device: "/device:CPU:0"
  attr {
    key: "_output_shapes"
    value {
      list {
        shape {
        }
      }
    }
  }
  attr {
    key: "dtype"
    value {
      type: DT_INT32
    }
  }
  attr {
    key: "value"
    value {
      tensor {
        dtype: DT_INT32
        tensor_shape {
        }
        int_val: 1
      }
    }
  }
}
node {
  name: "shuffle_batch"
  op: "QueueDequeueUpToV2"
  input: "shuffle_batch/random_shuffle_queue"
  input: "shuffle_batch/n"
  device: "/device:CPU:0"
  attr {
    key: "_output_shapes"
    value {
      list {
        shape {
          dim {
            size: -1
          }
          dim {
            size: 1
          }
        }
        shape {
          dim {
            size: -1
          }
          dim {
            size: 1
          }
        }
        shape {
          dim {
            size: -1
          }
          dim {
            size: 1
          }
        }
        shape {
          dim {
            size: -1
          }
          dim {
            size: 1
          }
        }
        shape {
          dim {
            size: -1
          }
          dim {
            size: 1
          }
        }
        shape {
          dim {
            size: -1
          }
          dim {
            size: 1
          }
        }
        shape {
          dim {
            size: -1
          }
          dim {
            size: 1
          }
        }
        shape {
          dim {
            size: -1
          }
          dim {
            size: 1
          }
        }
      }
    }
  }
  attr {
    key: "component_types"
    value {
      list {
        type: DT_FLOAT
        type: DT_FLOAT
        type: DT_FLOAT
        type: DT_INT32
        type: DT_FLOAT
        type: DT_FLOAT
        type: DT_FLOAT
        type: DT_FLOAT
      }
    }
  }
  attr {
    key: "timeout_ms"
    value {
      i: -1
    }
  }
}
node {
  name: "input_layer/diameter/Shape"
  op: "Shape"
  input: "shuffle_batch"
  attr {
    key: "T"
    value {
      type: DT_FLOAT
    }
  }
  attr {
    key: "_output_shapes"
    value {
      list {
        shape {
          dim {
            size: 2
          }
        }
      }
    }
  }
  attr {
    key: "out_type"
    value {
      type: DT_INT32
    }
  }
}
node {
  name: "input_layer/diameter/strided_slice/stack"
  op: "Const"
  attr {
    key: "_output_shapes"
    value {
      list {
        shape {
          dim {
            size: 1
          }
        }
      }
    }
  }
  attr {
    key: "dtype"
    value {
      type: DT_INT32
    }
  }
  attr {
    key: "value"
    value {
      tensor {
        dtype: DT_INT32
        tensor_shape {
          dim {
            size: 1
          }
        }
        int_val: 0
      }
    }
  }
}
node {
  name: "input_layer/diameter/strided_slice/stack_1"
  op: "Const"
  attr {
    key: "_output_shapes"
    value {
      list {
        shape {
          dim {
            size: 1
          }
        }
      }
    }
  }
  attr {
    key: "dtype"
    value {
      type: DT_INT32
    }
  }
  attr {
    key: "value"
    value {
      tensor {
        dtype: DT_INT32
        tensor_shape {
          dim {
            size: 1
          }
        }
        int_val: 1
      }
    }
  }
}
node {
  name: "input_layer/diameter/strided_slice/stack_2"
  op: "Const"
  attr {
    key: "_output_shapes"
    value {
      list {
        shape {
          dim {
            size: 1
          }
        }
      }
    }
  }
  attr {
    key: "dtype"
    value {
      type: DT_INT32
    }
  }
  attr {
    key: "value"
    value {
      tensor {
        dtype: DT_INT32
        tensor_shape {
          dim {
            size: 1
          }
        }
        int_val: 1
      }
    }
  }
}
node {
  name: "input_layer/diameter/strided_slice"
  op: "StridedSlice"
  input: "input_layer/diameter/Shape"
  input: "input_layer/diameter/strided_slice/stack"
  input: "input_layer/diameter/strided_slice/stack_1"
  input: "input_layer/diameter/strided_slice/stack_2"
  attr {
    key: "Index"
    value {
      type: DT_INT32
    }
  }
  attr {
    key: "T"
    value {
      type: DT_INT32
    }
  }
  attr {
    key: "_output_shapes"
    value {
      list {
        shape {
        }
      }
    }
  }
  attr {
    key: "begin_mask"
    value {
      i: 0
    }
  }
  attr {
    key: "ellipsis_mask"
    value {
      i: 0
    }
  }
  attr {
    key: "end_mask"
    value {
      i: 0
    }
  }
  attr {
    key: "new_axis_mask"
    value {
      i: 0
    }
  }
  attr {
    key: "shrink_axis_mask"
    value {
      i: 1
    }
  }
}
node {
  name: "input_layer/diameter/Reshape/shape/1"
  op: "Const"
  attr {
    key: "_output_shapes"
    value {
      list {
        shape {
        }
      }
    }
  }
  attr {
    key: "dtype"
    value {
      type: DT_INT32
    }
  }
  attr {
    key: "value"
    value {
      tensor {
        dtype: DT_INT32
        tensor_shape {
        }
        int_val: 1
      }
    }
  }
}
node {
  name: "input_layer/diameter/Reshape/shape"
  op: "Pack"
  input: "input_layer/diameter/strided_slice"
  input: "input_layer/diameter/Reshape/shape/1"
  attr {
    key: "N"
    value {
      i: 2
    }
  }
  attr {
    key: "T"
    value {
      type: DT_INT32
    }
  }
  attr {
    key: "_output_shapes"
    value {
      list {
        shape {
          dim {
            size: 2
          }
        }
      }
    }
  }
  attr {
    key: "axis"
    value {
      i: 0
    }
  }
}
node {
  name: "input_layer/diameter/Reshape"
  op: "Reshape"
  input: "shuffle_batch"
  input: "input_layer/diameter/Reshape/shape"
  attr {
    key: "T"
    value {
      type: DT_FLOAT
    }
  }
  attr {
    key: "Tshape"
    value {
      type: DT_INT32
    }
  }
  attr {
    key: "_output_shapes"
    value {
      list {
        shape {
          dim {
            size: -1
          }
          dim {
            size: 1
          }
        }
      }
    }
  }
}
node {
  name: "input_layer/height/Shape"
  op: "Shape"
  input: "shuffle_batch:1"
  attr {
    key: "T"
    value {
      type: DT_FLOAT
    }
  }
  attr {
    key: "_output_shapes"
    value {
      list {
        shape {
          dim {
            size: 2
          }
        }
      }
    }
  }
  attr {
    key: "out_type"
    value {
      type: DT_INT32
    }
  }
}
node {
  name: "input_layer/height/strided_slice/stack"
  op: "Const"
  attr {
    key: "_output_shapes"
    value {
      list {
        shape {
          dim {
            size: 1
          }
        }
      }
    }
  }
  attr {
    key: "dtype"
    value {
      type: DT_INT32
    }
  }
  attr {
    key: "value"
    value {
      tensor {
        dtype: DT_INT32
        tensor_shape {
          dim {
            size: 1
          }
        }
        int_val: 0
      }
    }
  }
}
node {
  name: "input_layer/height/strided_slice/stack_1"
  op: "Const"
  attr {
    key: "_output_shapes"
    value {
      list {
        shape {
          dim {
            size: 1
          }
        }
      }
    }
  }
  attr {
    key: "dtype"
    value {
      type: DT_INT32
    }
  }
  attr {
    key: "value"
    value {
      tensor {
        dtype: DT_INT32
        tensor_shape {
          dim {
            size: 1
          }
        }
        int_val: 1
      }
    }
  }
}
node {
  name: "input_layer/height/strided_slice/stack_2"
  op: "Const"
  attr {
    key: "_output_shapes"
    value {
      list {
        shape {
          dim {
            size: 1
          }
        }
      }
    }
  }
  attr {
    key: "dtype"
    value {
      type: DT_INT32
    }
  }
  attr {
    key: "value"
    value {
      tensor {
        dtype: DT_INT32
        tensor_shape {
          dim {
            size: 1
          }
        }
        int_val: 1
      }
    }
  }
}
node {
  name: "input_layer/height/strided_slice"
  op: "StridedSlice"
  input: "input_layer/height/Shape"
  input: "input_layer/height/strided_slice/stack"
  input: "input_layer/height/strided_slice/stack_1"
  input: "input_layer/height/strided_slice/stack_2"
  attr {
    key: "Index"
    value {
      type: DT_INT32
    }
  }
  attr {
    key: "T"
    value {
      type: DT_INT32
    }
  }
  attr {
    key: "_output_shapes"
    value {
      list {
        shape {
        }
      }
    }
  }
  attr {
    key: "begin_mask"
    value {
      i: 0
    }
  }
  attr {
    key: "ellipsis_mask"
    value {
      i: 0
    }
  }
  attr {
    key: "end_mask"
    value {
      i: 0
    }
  }
  attr {
    key: "new_axis_mask"
    value {
      i: 0
    }
  }
  attr {
    key: "shrink_axis_mask"
    value {
      i: 1
    }
  }
}
node {
  name: "input_layer/height/Reshape/shape/1"
  op: "Const"
  attr {
    key: "_output_shapes"
    value {
      list {
        shape {
        }
      }
    }
  }
  attr {
    key: "dtype"
    value {
      type: DT_INT32
    }
  }
  attr {
    key: "value"
    value {
      tensor {
        dtype: DT_INT32
        tensor_shape {
        }
        int_val: 1
      }
    }
  }
}
node {
  name: "input_layer/height/Reshape/shape"
  op: "Pack"
  input: "input_layer/height/strided_slice"
  input: "input_layer/height/Reshape/shape/1"
  attr {
    key: "N"
    value {
      i: 2
    }
  }
  attr {
    key: "T"
    value {
      type: DT_INT32
    }
  }
  attr {
    key: "_output_shapes"
    value {
      list {
        shape {
          dim {
            size: 2
          }
        }
      }
    }
  }
  attr {
    key: "axis"
    value {
      i: 0
    }
  }
}
node {
  name: "input_layer/height/Reshape"
  op: "Reshape"
  input: "shuffle_batch:1"
  input: "input_layer/height/Reshape/shape"
  attr {
    key: "T"
    value {
      type: DT_FLOAT
    }
  }
  attr {
    key: "Tshape"
    value {
      type: DT_INT32
    }
  }
  attr {
    key: "_output_shapes"
    value {
      list {
        shape {
          dim {
            size: -1
          }
          dim {
            size: 1
          }
        }
      }
    }
  }
}
node {
  name: "input_layer/length/Shape"
  op: "Shape"
  input: "shuffle_batch:2"
  attr {
    key: "T"
    value {
      type: DT_FLOAT
    }
  }
  attr {
    key: "_output_shapes"
    value {
      list {
        shape {
          dim {
            size: 2
          }
        }
      }
    }
  }
  attr {
    key: "out_type"
    value {
      type: DT_INT32
    }
  }
}
node {
  name: "input_layer/length/strided_slice/stack"
  op: "Const"
  attr {
    key: "_output_shapes"
    value {
      list {
        shape {
          dim {
            size: 1
          }
        }
      }
    }
  }
  attr {
    key: "dtype"
    value {
      type: DT_INT32
    }
  }
  attr {
    key: "value"
    value {
      tensor {
        dtype: DT_INT32
        tensor_shape {
          dim {
            size: 1
          }
        }
        int_val: 0
      }
    }
  }
}
node {
  name: "input_layer/length/strided_slice/stack_1"
  op: "Const"
  attr {
    key: "_output_shapes"
    value {
      list {
        shape {
          dim {
            size: 1
          }
        }
      }
    }
  }
  attr {
    key: "dtype"
    value {
      type: DT_INT32
    }
  }
  attr {
    key: "value"
    value {
      tensor {
        dtype: DT_INT32
        tensor_shape {
          dim {
            size: 1
          }
        }
        int_val: 1
      }
    }
  }
}
node {
  name: "input_layer/length/strided_slice/stack_2"
  op: "Const"
  attr {
    key: "_output_shapes"
    value {
      list {
        shape {
          dim {
            size: 1
          }
        }
      }
    }
  }
  attr {
    key: "dtype"
    value {
      type: DT_INT32
    }
  }
  attr {
    key: "value"
    value {
      tensor {
        dtype: DT_INT32
        tensor_shape {
          dim {
            size: 1
          }
        }
        int_val: 1
      }
    }
  }
}
node {
  name: "input_layer/length/strided_slice"
  op: "StridedSlice"
  input: "input_layer/length/Shape"
  input: "input_layer/length/strided_slice/stack"
  input: "input_layer/length/strided_slice/stack_1"
  input: "input_layer/length/strided_slice/stack_2"
  attr {
    key: "Index"
    value {
      type: DT_INT32
    }
  }
  attr {
    key: "T"
    value {
      type: DT_INT32
    }
  }
  attr {
    key: "_output_shapes"
    value {
      list {
        shape {
        }
      }
    }
  }
  attr {
    key: "begin_mask"
    value {
      i: 0
    }
  }
  attr {
    key: "ellipsis_mask"
    value {
      i: 0
    }
  }
  attr {
    key: "end_mask"
    value {
      i: 0
    }
  }
  attr {
    key: "new_axis_mask"
    value {
      i: 0
    }
  }
  attr {
    key: "shrink_axis_mask"
    value {
      i: 1
    }
  }
}
node {
  name: "input_layer/length/Reshape/shape/1"
  op: "Const"
  attr {
    key: "_output_shapes"
    value {
      list {
        shape {
        }
      }
    }
  }
  attr {
    key: "dtype"
    value {
      type: DT_INT32
    }
  }
  attr {
    key: "value"
    value {
      tensor {
        dtype: DT_INT32
        tensor_shape {
        }
        int_val: 1
      }
    }
  }
}
node {
  name: "input_layer/length/Reshape/shape"
  op: "Pack"
  input: "input_layer/length/strided_slice"
  input: "input_layer/length/Reshape/shape/1"
  attr {
    key: "N"
    value {
      i: 2
    }
  }
  attr {
    key: "T"
    value {
      type: DT_INT32
    }
  }
  attr {
    key: "_output_shapes"
    value {
      list {
        shape {
          dim {
            size: 2
          }
        }
      }
    }
  }
  attr {
    key: "axis"
    value {
      i: 0
    }
  }
}
node {
  name: "input_layer/length/Reshape"
  op: "Reshape"
  input: "shuffle_batch:2"
  input: "input_layer/length/Reshape/shape"
  attr {
    key: "T"
    value {
      type: DT_FLOAT
    }
  }
  attr {
    key: "Tshape"
    value {
      type: DT_INT32
    }
  }
  attr {
    key: "_output_shapes"
    value {
      list {
        shape {
          dim {
            size: -1
          }
          dim {
            size: 1
          }
        }
      }
    }
  }
}
node {
  name: "input_layer/shell_weight/Shape"
  op: "Shape"
  input: "shuffle_batch:4"
  attr {
    key: "T"
    value {
      type: DT_FLOAT
    }
  }
  attr {
    key: "_output_shapes"
    value {
      list {
        shape {
          dim {
            size: 2
          }
        }
      }
    }
  }
  attr {
    key: "out_type"
    value {
      type: DT_INT32
    }
  }
}
node {
  name: "input_layer/shell_weight/strided_slice/stack"
  op: "Const"
  attr {
    key: "_output_shapes"
    value {
      list {
        shape {
          dim {
            size: 1
          }
        }
      }
    }
  }
  attr {
    key: "dtype"
    value {
      type: DT_INT32
    }
  }
  attr {
    key: "value"
    value {
      tensor {
        dtype: DT_INT32
        tensor_shape {
          dim {
            size: 1
          }
        }
        int_val: 0
      }
    }
  }
}
node {
  name: "input_layer/shell_weight/strided_slice/stack_1"
  op: "Const"
  attr {
    key: "_output_shapes"
    value {
      list {
        shape {
          dim {
            size: 1
          }
        }
      }
    }
  }
  attr {
    key: "dtype"
    value {
      type: DT_INT32
    }
  }
  attr {
    key: "value"
    value {
      tensor {
        dtype: DT_INT32
        tensor_shape {
          dim {
            size: 1
          }
        }
        int_val: 1
      }
    }
  }
}
node {
  name: "input_layer/shell_weight/strided_slice/stack_2"
  op: "Const"
  attr {
    key: "_output_shapes"
    value {
      list {
        shape {
          dim {
            size: 1
          }
        }
      }
    }
  }
  attr {
    key: "dtype"
    value {
      type: DT_INT32
    }
  }
  attr {
    key: "value"
    value {
      tensor {
        dtype: DT_INT32
        tensor_shape {
          dim {
            size: 1
          }
        }
        int_val: 1
      }
    }
  }
}
node {
  name: "input_layer/shell_weight/strided_slice"
  op: "StridedSlice"
  input: "input_layer/shell_weight/Shape"
  input: "input_layer/shell_weight/strided_slice/stack"
  input: "input_layer/shell_weight/strided_slice/stack_1"
  input: "input_layer/shell_weight/strided_slice/stack_2"
  attr {
    key: "Index"
    value {
      type: DT_INT32
    }
  }
  attr {
    key: "T"
    value {
      type: DT_INT32
    }
  }
  attr {
    key: "_output_shapes"
    value {
      list {
        shape {
        }
      }
    }
  }
  attr {
    key: "begin_mask"
    value {
      i: 0
    }
  }
  attr {
    key: "ellipsis_mask"
    value {
      i: 0
    }
  }
  attr {
    key: "end_mask"
    value {
      i: 0
    }
  }
  attr {
    key: "new_axis_mask"
    value {
      i: 0
    }
  }
  attr {
    key: "shrink_axis_mask"
    value {
      i: 1
    }
  }
}
node {
  name: "input_layer/shell_weight/Reshape/shape/1"
  op: "Const"
  attr {
    key: "_output_shapes"
    value {
      list {
        shape {
        }
      }
    }
  }
  attr {
    key: "dtype"
    value {
      type: DT_INT32
    }
  }
  attr {
    key: "value"
    value {
      tensor {
        dtype: DT_INT32
        tensor_shape {
        }
        int_val: 1
      }
    }
  }
}
node {
  name: "input_layer/shell_weight/Reshape/shape"
  op: "Pack"
  input: "input_layer/shell_weight/strided_slice"
  input: "input_layer/shell_weight/Reshape/shape/1"
  attr {
    key: "N"
    value {
      i: 2
    }
  }
  attr {
    key: "T"
    value {
      type: DT_INT32
    }
  }
  attr {
    key: "_output_shapes"
    value {
      list {
        shape {
          dim {
            size: 2
          }
        }
      }
    }
  }
  attr {
    key: "axis"
    value {
      i: 0
    }
  }
}
node {
  name: "input_layer/shell_weight/Reshape"
  op: "Reshape"
  input: "shuffle_batch:4"
  input: "input_layer/shell_weight/Reshape/shape"
  attr {
    key: "T"
    value {
      type: DT_FLOAT
    }
  }
  attr {
    key: "Tshape"
    value {
      type: DT_INT32
    }
  }
  attr {
    key: "_output_shapes"
    value {
      list {
        shape {
          dim {
            size: -1
          }
          dim {
            size: 1
          }
        }
      }
    }
  }
}
node {
  name: "input_layer/shucked_weight/Shape"
  op: "Shape"
  input: "shuffle_batch:5"
  attr {
    key: "T"
    value {
      type: DT_FLOAT
    }
  }
  attr {
    key: "_output_shapes"
    value {
      list {
        shape {
          dim {
            size: 2
          }
        }
      }
    }
  }
  attr {
    key: "out_type"
    value {
      type: DT_INT32
    }
  }
}
node {
  name: "input_layer/shucked_weight/strided_slice/stack"
  op: "Const"
  attr {
    key: "_output_shapes"
    value {
      list {
        shape {
          dim {
            size: 1
          }
        }
      }
    }
  }
  attr {
    key: "dtype"
    value {
      type: DT_INT32
    }
  }
  attr {
    key: "value"
    value {
      tensor {
        dtype: DT_INT32
        tensor_shape {
          dim {
            size: 1
          }
        }
        int_val: 0
      }
    }
  }
}
node {
  name: "input_layer/shucked_weight/strided_slice/stack_1"
  op: "Const"
  attr {
    key: "_output_shapes"
    value {
      list {
        shape {
          dim {
            size: 1
          }
        }
      }
    }
  }
  attr {
    key: "dtype"
    value {
      type: DT_INT32
    }
  }
  attr {
    key: "value"
    value {
      tensor {
        dtype: DT_INT32
        tensor_shape {
          dim {
            size: 1
          }
        }
        int_val: 1
      }
    }
  }
}
node {
  name: "input_layer/shucked_weight/strided_slice/stack_2"
  op: "Const"
  attr {
    key: "_output_shapes"
    value {
      list {
        shape {
          dim {
            size: 1
          }
        }
      }
    }
  }
  attr {
    key: "dtype"
    value {
      type: DT_INT32
    }
  }
  attr {
    key: "value"
    value {
      tensor {
        dtype: DT_INT32
        tensor_shape {
          dim {
            size: 1
          }
        }
        int_val: 1
      }
    }
  }
}
node {
  name: "input_layer/shucked_weight/strided_slice"
  op: "StridedSlice"
  input: "input_layer/shucked_weight/Shape"
  input: "input_layer/shucked_weight/strided_slice/stack"
  input: "input_layer/shucked_weight/strided_slice/stack_1"
  input: "input_layer/shucked_weight/strided_slice/stack_2"
  attr {
    key: "Index"
    value {
      type: DT_INT32
    }
  }
  attr {
    key: "T"
    value {
      type: DT_INT32
    }
  }
  attr {
    key: "_output_shapes"
    value {
      list {
        shape {
        }
      }
    }
  }
  attr {
    key: "begin_mask"
    value {
      i: 0
    }
  }
  attr {
    key: "ellipsis_mask"
    value {
      i: 0
    }
  }
  attr {
    key: "end_mask"
    value {
      i: 0
    }
  }
  attr {
    key: "new_axis_mask"
    value {
      i: 0
    }
  }
  attr {
    key: "shrink_axis_mask"
    value {
      i: 1
    }
  }
}
node {
  name: "input_layer/shucked_weight/Reshape/shape/1"
  op: "Const"
  attr {
    key: "_output_shapes"
    value {
      list {
        shape {
        }
      }
    }
  }
  attr {
    key: "dtype"
    value {
      type: DT_INT32
    }
  }
  attr {
    key: "value"
    value {
      tensor {
        dtype: DT_INT32
        tensor_shape {
        }
        int_val: 1
      }
    }
  }
}
node {
  name: "input_layer/shucked_weight/Reshape/shape"
  op: "Pack"
  input: "input_layer/shucked_weight/strided_slice"
  input: "input_layer/shucked_weight/Reshape/shape/1"
  attr {
    key: "N"
    value {
      i: 2
    }
  }
  attr {
    key: "T"
    value {
      type: DT_INT32
    }
  }
  attr {
    key: "_output_shapes"
    value {
      list {
        shape {
          dim {
            size: 2
          }
        }
      }
    }
  }
  attr {
    key: "axis"
    value {
      i: 0
    }
  }
}
node {
  name: "input_layer/shucked_weight/Reshape"
  op: "Reshape"
  input: "shuffle_batch:5"
  input: "input_layer/shucked_weight/Reshape/shape"
  attr {
    key: "T"
    value {
      type: DT_FLOAT
    }
  }
  attr {
    key: "Tshape"
    value {
      type: DT_INT32
    }
  }
  attr {
    key: "_output_shapes"
    value {
      list {
        shape {
          dim {
            size: -1
          }
          dim {
            size: 1
          }
        }
      }
    }
  }
}
node {
  name: "input_layer/viscera_weight/Shape"
  op: "Shape"
  input: "shuffle_batch:6"
  attr {
    key: "T"
    value {
      type: DT_FLOAT
    }
  }
  attr {
    key: "_output_shapes"
    value {
      list {
        shape {
          dim {
            size: 2
          }
        }
      }
    }
  }
  attr {
    key: "out_type"
    value {
      type: DT_INT32
    }
  }
}
node {
  name: "input_layer/viscera_weight/strided_slice/stack"
  op: "Const"
  attr {
    key: "_output_shapes"
    value {
      list {
        shape {
          dim {
            size: 1
          }
        }
      }
    }
  }
  attr {
    key: "dtype"
    value {
      type: DT_INT32
    }
  }
  attr {
    key: "value"
    value {
      tensor {
        dtype: DT_INT32
        tensor_shape {
          dim {
            size: 1
          }
        }
        int_val: 0
      }
    }
  }
}
node {
  name: "input_layer/viscera_weight/strided_slice/stack_1"
  op: "Const"
  attr {
    key: "_output_shapes"
    value {
      list {
        shape {
          dim {
            size: 1
          }
        }
      }
    }
  }
  attr {
    key: "dtype"
    value {
      type: DT_INT32
    }
  }
  attr {
    key: "value"
    value {
      tensor {
        dtype: DT_INT32
        tensor_shape {
          dim {
            size: 1
          }
        }
        int_val: 1
      }
    }
  }
}
node {
  name: "input_layer/viscera_weight/strided_slice/stack_2"
  op: "Const"
  attr {
    key: "_output_shapes"
    value {
      list {
        shape {
          dim {
            size: 1
          }
        }
      }
    }
  }
  attr {
    key: "dtype"
    value {
      type: DT_INT32
    }
  }
  attr {
    key: "value"
    value {
      tensor {
        dtype: DT_INT32
        tensor_shape {
          dim {
            size: 1
          }
        }
        int_val: 1
      }
    }
  }
}
node {
  name: "input_layer/viscera_weight/strided_slice"
  op: "StridedSlice"
  input: "input_layer/viscera_weight/Shape"
  input: "input_layer/viscera_weight/strided_slice/stack"
  input: "input_layer/viscera_weight/strided_slice/stack_1"
  input: "input_layer/viscera_weight/strided_slice/stack_2"
  attr {
    key: "Index"
    value {
      type: DT_INT32
    }
  }
  attr {
    key: "T"
    value {
      type: DT_INT32
    }
  }
  attr {
    key: "_output_shapes"
    value {
      list {
        shape {
        }
      }
    }
  }
  attr {
    key: "begin_mask"
    value {
      i: 0
    }
  }
  attr {
    key: "ellipsis_mask"
    value {
      i: 0
    }
  }
  attr {
    key: "end_mask"
    value {
      i: 0
    }
  }
  attr {
    key: "new_axis_mask"
    value {
      i: 0
    }
  }
  attr {
    key: "shrink_axis_mask"
    value {
      i: 1
    }
  }
}
node {
  name: "input_layer/viscera_weight/Reshape/shape/1"
  op: "Const"
  attr {
    key: "_output_shapes"
    value {
      list {
        shape {
        }
      }
    }
  }
  attr {
    key: "dtype"
    value {
      type: DT_INT32
    }
  }
  attr {
    key: "value"
    value {
      tensor {
        dtype: DT_INT32
        tensor_shape {
        }
        int_val: 1
      }
    }
  }
}
node {
  name: "input_layer/viscera_weight/Reshape/shape"
  op: "Pack"
  input: "input_layer/viscera_weight/strided_slice"
  input: "input_layer/viscera_weight/Reshape/shape/1"
  attr {
    key: "N"
    value {
      i: 2
    }
  }
  attr {
    key: "T"
    value {
      type: DT_INT32
    }
  }
  attr {
    key: "_output_shapes"
    value {
      list {
        shape {
          dim {
            size: 2
          }
        }
      }
    }
  }
  attr {
    key: "axis"
    value {
      i: 0
    }
  }
}
node {
  name: "input_layer/viscera_weight/Reshape"
  op: "Reshape"
  input: "shuffle_batch:6"
  input: "input_layer/viscera_weight/Reshape/shape"
  attr {
    key: "T"
    value {
      type: DT_FLOAT
    }
  }
  attr {
    key: "Tshape"
    value {
      type: DT_INT32
    }
  }
  attr {
    key: "_output_shapes"
    value {
      list {
        shape {
          dim {
            size: -1
          }
          dim {
            size: 1
          }
        }
      }
    }
  }
}
node {
  name: "input_layer/whole_weight/Shape"
  op: "Shape"
  input: "shuffle_batch:7"
  attr {
    key: "T"
    value {
      type: DT_FLOAT
    }
  }
  attr {
    key: "_output_shapes"
    value {
      list {
        shape {
          dim {
            size: 2
          }
        }
      }
    }
  }
  attr {
    key: "out_type"
    value {
      type: DT_INT32
    }
  }
}
node {
  name: "input_layer/whole_weight/strided_slice/stack"
  op: "Const"
  attr {
    key: "_output_shapes"
    value {
      list {
        shape {
          dim {
            size: 1
          }
        }
      }
    }
  }
  attr {
    key: "dtype"
    value {
      type: DT_INT32
    }
  }
  attr {
    key: "value"
    value {
      tensor {
        dtype: DT_INT32
        tensor_shape {
          dim {
            size: 1
          }
        }
        int_val: 0
      }
    }
  }
}
node {
  name: "input_layer/whole_weight/strided_slice/stack_1"
  op: "Const"
  attr {
    key: "_output_shapes"
    value {
      list {
        shape {
          dim {
            size: 1
          }
        }
      }
    }
  }
  attr {
    key: "dtype"
    value {
      type: DT_INT32
    }
  }
  attr {
    key: "value"
    value {
      tensor {
        dtype: DT_INT32
        tensor_shape {
          dim {
            size: 1
          }
        }
        int_val: 1
      }
    }
  }
}
node {
  name: "input_layer/whole_weight/strided_slice/stack_2"
  op: "Const"
  attr {
    key: "_output_shapes"
    value {
      list {
        shape {
          dim {
            size: 1
          }
        }
      }
    }
  }
  attr {
    key: "dtype"
    value {
      type: DT_INT32
    }
  }
  attr {
    key: "value"
    value {
      tensor {
        dtype: DT_INT32
        tensor_shape {
          dim {
            size: 1
          }
        }
        int_val: 1
      }
    }
  }
}
node {
  name: "input_layer/whole_weight/strided_slice"
  op: "StridedSlice"
  input: "input_layer/whole_weight/Shape"
  input: "input_layer/whole_weight/strided_slice/stack"
  input: "input_layer/whole_weight/strided_slice/stack_1"
  input: "input_layer/whole_weight/strided_slice/stack_2"
  attr {
    key: "Index"
    value {
      type: DT_INT32
    }
  }
  attr {
    key: "T"
    value {
      type: DT_INT32
    }
  }
  attr {
    key: "_output_shapes"
    value {
      list {
        shape {
        }
      }
    }
  }
  attr {
    key: "begin_mask"
    value {
      i: 0
    }
  }
  attr {
    key: "ellipsis_mask"
    value {
      i: 0
    }
  }
  attr {
    key: "end_mask"
    value {
      i: 0
    }
  }
  attr {
    key: "new_axis_mask"
    value {
      i: 0
    }
  }
  attr {
    key: "shrink_axis_mask"
    value {
      i: 1
    }
  }
}
node {
  name: "input_layer/whole_weight/Reshape/shape/1"
  op: "Const"
  attr {
    key: "_output_shapes"
    value {
      list {
        shape {
        }
      }
    }
  }
  attr {
    key: "dtype"
    value {
      type: DT_INT32
    }
  }
  attr {
    key: "value"
    value {
      tensor {
        dtype: DT_INT32
        tensor_shape {
        }
        int_val: 1
      }
    }
  }
}
node {
  name: "input_layer/whole_weight/Reshape/shape"
  op: "Pack"
  input: "input_layer/whole_weight/strided_slice"
  input: "input_layer/whole_weight/Reshape/shape/1"
  attr {
    key: "N"
    value {
      i: 2
    }
  }
  attr {
    key: "T"
    value {
      type: DT_INT32
    }
  }
  attr {
    key: "_output_shapes"
    value {
      list {
        shape {
          dim {
            size: 2
          }
        }
      }
    }
  }
  attr {
    key: "axis"
    value {
      i: 0
    }
  }
}
node {
  name: "input_layer/whole_weight/Reshape"
  op: "Reshape"
  input: "shuffle_batch:7"
  input: "input_layer/whole_weight/Reshape/shape"
  attr {
    key: "T"
    value {
      type: DT_FLOAT
    }
  }
  attr {
    key: "Tshape"
    value {
      type: DT_INT32
    }
  }
  attr {
    key: "_output_shapes"
    value {
      list {
        shape {
          dim {
            size: -1
          }
          dim {
            size: 1
          }
        }
      }
    }
  }
}
node {
  name: "input_layer/concat/axis"
  op: "Const"
  attr {
    key: "_output_shapes"
    value {
      list {
        shape {
        }
      }
    }
  }
  attr {
    key: "dtype"
    value {
      type: DT_INT32
    }
  }
  attr {
    key: "value"
    value {
      tensor {
        dtype: DT_INT32
        tensor_shape {
        }
        int_val: 1
      }
    }
  }
}
node {
  name: "input_layer/concat"
  op: "ConcatV2"
  input: "input_layer/diameter/Reshape"
  input: "input_layer/height/Reshape"
  input: "input_layer/length/Reshape"
  input: "input_layer/shell_weight/Reshape"
  input: "input_layer/shucked_weight/Reshape"
  input: "input_layer/viscera_weight/Reshape"
  input: "input_layer/whole_weight/Reshape"
  input: "input_layer/concat/axis"
  attr {
    key: "N"
    value {
      i: 7
    }
  }
  attr {
    key: "T"
    value {
      type: DT_FLOAT
    }
  }
  attr {
    key: "Tidx"
    value {
      type: DT_INT32
    }
  }
  attr {
    key: "_output_shapes"
    value {
      list {
        shape {
          dim {
            size: -1
          }
          dim {
            size: 7
          }
        }
      }
    }
  }
}
node {
  name: "dense/kernel/Initializer/random_uniform/shape"
  op: "Const"
  attr {
    key: "_class"
    value {
      list {
        s: "loc:@dense/kernel"
      }
    }
  }
  attr {
    key: "_output_shapes"
    value {
      list {
        shape {
          dim {
            size: 2
          }
        }
      }
    }
  }
  attr {
    key: "dtype"
    value {
      type: DT_INT32
    }
  }
  attr {
    key: "value"
    value {
      tensor {
        dtype: DT_INT32
        tensor_shape {
          dim {
            size: 2
          }
        }
        tensor_content: "\007\000\000\000\n\000\000\000"
      }
    }
  }
}
node {
  name: "dense/kernel/Initializer/random_uniform/min"
  op: "Const"
  attr {
    key: "_class"
    value {
      list {
        s: "loc:@dense/kernel"
      }
    }
  }
  attr {
    key: "_output_shapes"
    value {
      list {
        shape {
        }
      }
    }
  }
  attr {
    key: "dtype"
    value {
      type: DT_FLOAT
    }
  }
  attr {
    key: "value"
    value {
      tensor {
        dtype: DT_FLOAT
        tensor_shape {
        }
        float_val: -0.594088554382
      }
    }
  }
}
node {
  name: "dense/kernel/Initializer/random_uniform/max"
  op: "Const"
  attr {
    key: "_class"
    value {
      list {
        s: "loc:@dense/kernel"
      }
    }
  }
  attr {
    key: "_output_shapes"
    value {
      list {
        shape {
        }
      }
    }
  }
  attr {
    key: "dtype"
    value {
      type: DT_FLOAT
    }
  }
  attr {
    key: "value"
    value {
      tensor {
        dtype: DT_FLOAT
        tensor_shape {
        }
        float_val: 0.594088554382
      }
    }
  }
}
node {
  name: "dense/kernel/Initializer/random_uniform/RandomUniform"
  op: "RandomUniform"
  input: "dense/kernel/Initializer/random_uniform/shape"
  attr {
    key: "T"
    value {
      type: DT_INT32
    }
  }
  attr {
    key: "_class"
    value {
      list {
        s: "loc:@dense/kernel"
      }
    }
  }
  attr {
    key: "_output_shapes"
    value {
      list {
        shape {
          dim {
            size: 7
          }
          dim {
            size: 10
          }
        }
      }
    }
  }
  attr {
    key: "dtype"
    value {
      type: DT_FLOAT
    }
  }
  attr {
    key: "seed"
    value {
      i: 0
    }
  }
  attr {
    key: "seed2"
    value {
      i: 0
    }
  }
}
node {
  name: "dense/kernel/Initializer/random_uniform/sub"
  op: "Sub"
  input: "dense/kernel/Initializer/random_uniform/max"
  input: "dense/kernel/Initializer/random_uniform/min"
  attr {
    key: "T"
    value {
      type: DT_FLOAT
    }
  }
  attr {
    key: "_class"
    value {
      list {
        s: "loc:@dense/kernel"
      }
    }
  }
  attr {
    key: "_output_shapes"
    value {
      list {
        shape {
        }
      }
    }
  }
}
node {
  name: "dense/kernel/Initializer/random_uniform/mul"
  op: "Mul"
  input: "dense/kernel/Initializer/random_uniform/RandomUniform"
  input: "dense/kernel/Initializer/random_uniform/sub"
  attr {
    key: "T"
    value {
      type: DT_FLOAT
    }
  }
  attr {
    key: "_class"
    value {
      list {
        s: "loc:@dense/kernel"
      }
    }
  }
  attr {
    key: "_output_shapes"
    value {
      list {
        shape {
          dim {
            size: 7
          }
          dim {
            size: 10
          }
        }
      }
    }
  }
}
node {
  name: "dense/kernel/Initializer/random_uniform"
  op: "Add"
  input: "dense/kernel/Initializer/random_uniform/mul"
  input: "dense/kernel/Initializer/random_uniform/min"
  attr {
    key: "T"
    value {
      type: DT_FLOAT
    }
  }
  attr {
    key: "_class"
    value {
      list {
        s: "loc:@dense/kernel"
      }
    }
  }
  attr {
    key: "_output_shapes"
    value {
      list {
        shape {
          dim {
            size: 7
          }
          dim {
            size: 10
          }
        }
      }
    }
  }
}
node {
  name: "dense/kernel"
  op: "VariableV2"
  attr {
    key: "_class"
    value {
      list {
        s: "loc:@dense/kernel"
      }
    }
  }
  attr {
    key: "_output_shapes"
    value {
      list {
        shape {
          dim {
            size: 7
          }
          dim {
            size: 10
          }
        }
      }
    }
  }
  attr {
    key: "container"
    value {
      s: ""
    }
  }
  attr {
    key: "dtype"
    value {
      type: DT_FLOAT
    }
  }
  attr {
    key: "shape"
    value {
      shape {
        dim {
          size: 7
        }
        dim {
          size: 10
        }
      }
    }
  }
  attr {
    key: "shared_name"
    value {
      s: ""
    }
  }
}
node {
  name: "dense/kernel/Assign"
  op: "Assign"
  input: "dense/kernel"
  input: "dense/kernel/Initializer/random_uniform"
  attr {
    key: "T"
    value {
      type: DT_FLOAT
    }
  }
  attr {
    key: "_class"
    value {
      list {
        s: "loc:@dense/kernel"
      }
    }
  }
  attr {
    key: "_output_shapes"
    value {
      list {
        shape {
          dim {
            size: 7
          }
          dim {
            size: 10
          }
        }
      }
    }
  }
  attr {
    key: "use_locking"
    value {
      b: true
    }
  }
  attr {
    key: "validate_shape"
    value {
      b: true
    }
  }
}
node {
  name: "dense/kernel/read"
  op: "Identity"
  input: "dense/kernel"
  attr {
    key: "T"
    value {
      type: DT_FLOAT
    }
  }
  attr {
    key: "_class"
    value {
      list {
        s: "loc:@dense/kernel"
      }
    }
  }
  attr {
    key: "_output_shapes"
    value {
      list {
        shape {
          dim {
            size: 7
          }
          dim {
            size: 10
          }
        }
      }
    }
  }
}
node {
  name: "dense/bias/Initializer/zeros"
  op: "Const"
  attr {
    key: "_class"
    value {
      list {
        s: "loc:@dense/bias"
      }
    }
  }
  attr {
    key: "_output_shapes"
    value {
      list {
        shape {
          dim {
            size: 10
          }
        }
      }
    }
  }
  attr {
    key: "dtype"
    value {
      type: DT_FLOAT
    }
  }
  attr {
    key: "value"
    value {
      tensor {
        dtype: DT_FLOAT
        tensor_shape {
          dim {
            size: 10
          }
        }
        float_val: 0.0
      }
    }
  }
}
node {
  name: "dense/bias"
  op: "VariableV2"
  attr {
    key: "_class"
    value {
      list {
        s: "loc:@dense/bias"
      }
    }
  }
  attr {
    key: "_output_shapes"
    value {
      list {
        shape {
          dim {
            size: 10
          }
        }
      }
    }
  }
  attr {
    key: "container"
    value {
      s: ""
    }
  }
  attr {
    key: "dtype"
    value {
      type: DT_FLOAT
    }
  }
  attr {
    key: "shape"
    value {
      shape {
        dim {
          size: 10
        }
      }
    }
  }
  attr {
    key: "shared_name"
    value {
      s: ""
    }
  }
}
node {
  name: "dense/bias/Assign"
  op: "Assign"
  input: "dense/bias"
  input: "dense/bias/Initializer/zeros"
  attr {
    key: "T"
    value {
      type: DT_FLOAT
    }
  }
  attr {
    key: "_class"
    value {
      list {
        s: "loc:@dense/bias"
      }
    }
  }
  attr {
    key: "_output_shapes"
    value {
      list {
        shape {
          dim {
            size: 10
          }
        }
      }
    }
  }
  attr {
    key: "use_locking"
    value {
      b: true
    }
  }
  attr {
    key: "validate_shape"
    value {
      b: true
    }
  }
}
node {
  name: "dense/bias/read"
  op: "Identity"
  input: "dense/bias"
  attr {
    key: "T"
    value {
      type: DT_FLOAT
    }
  }
  attr {
    key: "_class"
    value {
      list {
        s: "loc:@dense/bias"
      }
    }
  }
  attr {
    key: "_output_shapes"
    value {
      list {
        shape {
          dim {
            size: 10
          }
        }
      }
    }
  }
}
node {
  name: "dense/MatMul"
  op: "MatMul"
  input: "input_layer/concat"
  input: "dense/kernel/read"
  attr {
    key: "T"
    value {
      type: DT_FLOAT
    }
  }
  attr {
    key: "_output_shapes"
    value {
      list {
        shape {
          dim {
            size: -1
          }
          dim {
            size: 10
          }
        }
      }
    }
  }
  attr {
    key: "transpose_a"
    value {
      b: false
    }
  }
  attr {
    key: "transpose_b"
    value {
      b: false
    }
  }
}
node {
  name: "dense/BiasAdd"
  op: "BiasAdd"
  input: "dense/MatMul"
  input: "dense/bias/read"
  attr {
    key: "T"
    value {
      type: DT_FLOAT
    }
  }
  attr {
    key: "_output_shapes"
    value {
      list {
        shape {
          dim {
            size: -1
          }
          dim {
            size: 10
          }
        }
      }
    }
  }
  attr {
    key: "data_format"
    value {
      s: "NHWC"
    }
  }
}
node {
  name: "dense/Relu"
  op: "Relu"
  input: "dense/BiasAdd"
  attr {
    key: "T"
    value {
      type: DT_FLOAT
    }
  }
  attr {
    key: "_output_shapes"
    value {
      list {
        shape {
          dim {
            size: -1
          }
          dim {
            size: 10
          }
        }
      }
    }
  }
}
node {
  name: "dense_1/kernel/Initializer/random_uniform/shape"
  op: "Const"
  attr {
    key: "_class"
    value {
      list {
        s: "loc:@dense_1/kernel"
      }
    }
  }
  attr {
    key: "_output_shapes"
    value {
      list {
        shape {
          dim {
            size: 2
          }
        }
      }
    }
  }
  attr {
    key: "dtype"
    value {
      type: DT_INT32
    }
  }
  attr {
    key: "value"
    value {
      tensor {
        dtype: DT_INT32
        tensor_shape {
          dim {
            size: 2
          }
        }
        tensor_content: "\n\000\000\000\n\000\000\000"
      }
    }
  }
}
node {
  name: "dense_1/kernel/Initializer/random_uniform/min"
  op: "Const"
  attr {
    key: "_class"
    value {
      list {
        s: "loc:@dense_1/kernel"
      }
    }
  }
  attr {
    key: "_output_shapes"
    value {
      list {
        shape {
        }
      }
    }
  }
  attr {
    key: "dtype"
    value {
      type: DT_FLOAT
    }
  }
  attr {
    key: "value"
    value {
      tensor {
        dtype: DT_FLOAT
        tensor_shape {
        }
        float_val: -0.547722578049
      }
    }
  }
}
node {
  name: "dense_1/kernel/Initializer/random_uniform/max"
  op: "Const"
  attr {
    key: "_class"
    value {
      list {
        s: "loc:@dense_1/kernel"
      }
    }
  }
  attr {
    key: "_output_shapes"
    value {
      list {
        shape {
        }
      }
    }
  }
  attr {
    key: "dtype"
    value {
      type: DT_FLOAT
    }
  }
  attr {
    key: "value"
    value {
      tensor {
        dtype: DT_FLOAT
        tensor_shape {
        }
        float_val: 0.547722578049
      }
    }
  }
}
node {
  name: "dense_1/kernel/Initializer/random_uniform/RandomUniform"
  op: "RandomUniform"
  input: "dense_1/kernel/Initializer/random_uniform/shape"
  attr {
    key: "T"
    value {
      type: DT_INT32
    }
  }
  attr {
    key: "_class"
    value {
      list {
        s: "loc:@dense_1/kernel"
      }
    }
  }
  attr {
    key: "_output_shapes"
    value {
      list {
        shape {
          dim {
            size: 10
          }
          dim {
            size: 10
          }
        }
      }
    }
  }
  attr {
    key: "dtype"
    value {
      type: DT_FLOAT
    }
  }
  attr {
    key: "seed"
    value {
      i: 0
    }
  }
  attr {
    key: "seed2"
    value {
      i: 0
    }
  }
}
node {
  name: "dense_1/kernel/Initializer/random_uniform/sub"
  op: "Sub"
  input: "dense_1/kernel/Initializer/random_uniform/max"
  input: "dense_1/kernel/Initializer/random_uniform/min"
  attr {
    key: "T"
    value {
      type: DT_FLOAT
    }
  }
  attr {
    key: "_class"
    value {
      list {
        s: "loc:@dense_1/kernel"
      }
    }
  }
  attr {
    key: "_output_shapes"
    value {
      list {
        shape {
        }
      }
    }
  }
}
node {
  name: "dense_1/kernel/Initializer/random_uniform/mul"
  op: "Mul"
  input: "dense_1/kernel/Initializer/random_uniform/RandomUniform"
  input: "dense_1/kernel/Initializer/random_uniform/sub"
  attr {
    key: "T"
    value {
      type: DT_FLOAT
    }
  }
  attr {
    key: "_class"
    value {
      list {
        s: "loc:@dense_1/kernel"
      }
    }
  }
  attr {
    key: "_output_shapes"
    value {
      list {
        shape {
          dim {
            size: 10
          }
          dim {
            size: 10
          }
        }
      }
    }
  }
}
node {
  name: "dense_1/kernel/Initializer/random_uniform"
  op: "Add"
  input: "dense_1/kernel/Initializer/random_uniform/mul"
  input: "dense_1/kernel/Initializer/random_uniform/min"
  attr {
    key: "T"
    value {
      type: DT_FLOAT
    }
  }
  attr {
    key: "_class"
    value {
      list {
        s: "loc:@dense_1/kernel"
      }
    }
  }
  attr {
    key: "_output_shapes"
    value {
      list {
        shape {
          dim {
            size: 10
          }
          dim {
            size: 10
          }
        }
      }
    }
  }
}
node {
  name: "dense_1/kernel"
  op: "VariableV2"
  attr {
    key: "_class"
    value {
      list {
        s: "loc:@dense_1/kernel"
      }
    }
  }
  attr {
    key: "_output_shapes"
    value {
      list {
        shape {
          dim {
            size: 10
          }
          dim {
            size: 10
          }
        }
      }
    }
  }
  attr {
    key: "container"
    value {
      s: ""
    }
  }
  attr {
    key: "dtype"
    value {
      type: DT_FLOAT
    }
  }
  attr {
    key: "shape"
    value {
      shape {
        dim {
          size: 10
        }
        dim {
          size: 10
        }
      }
    }
  }
  attr {
    key: "shared_name"
    value {
      s: ""
    }
  }
}
node {
  name: "dense_1/kernel/Assign"
  op: "Assign"
  input: "dense_1/kernel"
  input: "dense_1/kernel/Initializer/random_uniform"
  attr {
    key: "T"
    value {
      type: DT_FLOAT
    }
  }
  attr {
    key: "_class"
    value {
      list {
        s: "loc:@dense_1/kernel"
      }
    }
  }
  attr {
    key: "_output_shapes"
    value {
      list {
        shape {
          dim {
            size: 10
          }
          dim {
            size: 10
          }
        }
      }
    }
  }
  attr {
    key: "use_locking"
    value {
      b: true
    }
  }
  attr {
    key: "validate_shape"
    value {
      b: true
    }
  }
}
node {
  name: "dense_1/kernel/read"
  op: "Identity"
  input: "dense_1/kernel"
  attr {
    key: "T"
    value {
      type: DT_FLOAT
    }
  }
  attr {
    key: "_class"
    value {
      list {
        s: "loc:@dense_1/kernel"
      }
    }
  }
  attr {
    key: "_output_shapes"
    value {
      list {
        shape {
          dim {
            size: 10
          }
          dim {
            size: 10
          }
        }
      }
    }
  }
}
node {
  name: "dense_1/bias/Initializer/zeros"
  op: "Const"
  attr {
    key: "_class"
    value {
      list {
        s: "loc:@dense_1/bias"
      }
    }
  }
  attr {
    key: "_output_shapes"
    value {
      list {
        shape {
          dim {
            size: 10
          }
        }
      }
    }
  }
  attr {
    key: "dtype"
    value {
      type: DT_FLOAT
    }
  }
  attr {
    key: "value"
    value {
      tensor {
        dtype: DT_FLOAT
        tensor_shape {
          dim {
            size: 10
          }
        }
        float_val: 0.0
      }
    }
  }
}
node {
  name: "dense_1/bias"
  op: "VariableV2"
  attr {
    key: "_class"
    value {
      list {
        s: "loc:@dense_1/bias"
      }
    }
  }
  attr {
    key: "_output_shapes"
    value {
      list {
        shape {
          dim {
            size: 10
          }
        }
      }
    }
  }
  attr {
    key: "container"
    value {
      s: ""
    }
  }
  attr {
    key: "dtype"
    value {
      type: DT_FLOAT
    }
  }
  attr {
    key: "shape"
    value {
      shape {
        dim {
          size: 10
        }
      }
    }
  }
  attr {
    key: "shared_name"
    value {
      s: ""
    }
  }
}
node {
  name: "dense_1/bias/Assign"
  op: "Assign"
  input: "dense_1/bias"
  input: "dense_1/bias/Initializer/zeros"
  attr {
    key: "T"
    value {
      type: DT_FLOAT
    }
  }
  attr {
    key: "_class"
    value {
      list {
        s: "loc:@dense_1/bias"
      }
    }
  }
  attr {
    key: "_output_shapes"
    value {
      list {
        shape {
          dim {
            size: 10
          }
        }
      }
    }
  }
  attr {
    key: "use_locking"
    value {
      b: true
    }
  }
  attr {
    key: "validate_shape"
    value {
      b: true
    }
  }
}
node {
  name: "dense_1/bias/read"
  op: "Identity"
  input: "dense_1/bias"
  attr {
    key: "T"
    value {
      type: DT_FLOAT
    }
  }
  attr {
    key: "_class"
    value {
      list {
        s: "loc:@dense_1/bias"
      }
    }
  }
  attr {
    key: "_output_shapes"
    value {
      list {
        shape {
          dim {
            size: 10
          }
        }
      }
    }
  }
}
node {
  name: "dense_2/MatMul"
  op: "MatMul"
  input: "dense/Relu"
  input: "dense_1/kernel/read"
  attr {
    key: "T"
    value {
      type: DT_FLOAT
    }
  }
  attr {
    key: "_output_shapes"
    value {
      list {
        shape {
          dim {
            size: -1
          }
          dim {
            size: 10
          }
        }
      }
    }
  }
  attr {
    key: "transpose_a"
    value {
      b: false
    }
  }
  attr {
    key: "transpose_b"
    value {
      b: false
    }
  }
}
node {
  name: "dense_2/BiasAdd"
  op: "BiasAdd"
  input: "dense_2/MatMul"
  input: "dense_1/bias/read"
  attr {
    key: "T"
    value {
      type: DT_FLOAT
    }
  }
  attr {
    key: "_output_shapes"
    value {
      list {
        shape {
          dim {
            size: -1
          }
          dim {
            size: 10
          }
        }
      }
    }
  }
  attr {
    key: "data_format"
    value {
      s: "NHWC"
    }
  }
}
node {
  name: "dense_2/Relu"
  op: "Relu"
  input: "dense_2/BiasAdd"
  attr {
    key: "T"
    value {
      type: DT_FLOAT
    }
  }
  attr {
    key: "_output_shapes"
    value {
      list {
        shape {
          dim {
            size: -1
          }
          dim {
            size: 10
          }
        }
      }
    }
  }
}
node {
  name: "dense_2/kernel/Initializer/random_uniform/shape"
  op: "Const"
  attr {
    key: "_class"
    value {
      list {
        s: "loc:@dense_2/kernel"
      }
    }
  }
  attr {
    key: "_output_shapes"
    value {
      list {
        shape {
          dim {
            size: 2
          }
        }
      }
    }
  }
  attr {
    key: "dtype"
    value {
      type: DT_INT32
    }
  }
  attr {
    key: "value"
    value {
      tensor {
        dtype: DT_INT32
        tensor_shape {
          dim {
            size: 2
          }
        }
        tensor_content: "\n\000\000\000\001\000\000\000"
      }
    }
  }
}
node {
  name: "dense_2/kernel/Initializer/random_uniform/min"
  op: "Const"
  attr {
    key: "_class"
    value {
      list {
        s: "loc:@dense_2/kernel"
      }
    }
  }
  attr {
    key: "_output_shapes"
    value {
      list {
        shape {
        }
      }
    }
  }
  attr {
    key: "dtype"
    value {
      type: DT_FLOAT
    }
  }
  attr {
    key: "value"
    value {
      tensor {
        dtype: DT_FLOAT
        tensor_shape {
        }
        float_val: -0.73854893446
      }
    }
  }
}
node {
  name: "dense_2/kernel/Initializer/random_uniform/max"
  op: "Const"
  attr {
    key: "_class"
    value {
      list {
        s: "loc:@dense_2/kernel"
      }
    }
  }
  attr {
    key: "_output_shapes"
    value {
      list {
        shape {
        }
      }
    }
  }
  attr {
    key: "dtype"
    value {
      type: DT_FLOAT
    }
  }
  attr {
    key: "value"
    value {
      tensor {
        dtype: DT_FLOAT
        tensor_shape {
        }
        float_val: 0.73854893446
      }
    }
  }
}
node {
  name: "dense_2/kernel/Initializer/random_uniform/RandomUniform"
  op: "RandomUniform"
  input: "dense_2/kernel/Initializer/random_uniform/shape"
  attr {
    key: "T"
    value {
      type: DT_INT32
    }
  }
  attr {
    key: "_class"
    value {
      list {
        s: "loc:@dense_2/kernel"
      }
    }
  }
  attr {
    key: "_output_shapes"
    value {
      list {
        shape {
          dim {
            size: 10
          }
          dim {
            size: 1
          }
        }
      }
    }
  }
  attr {
    key: "dtype"
    value {
      type: DT_FLOAT
    }
  }
  attr {
    key: "seed"
    value {
      i: 0
    }
  }
  attr {
    key: "seed2"
    value {
      i: 0
    }
  }
}
node {
  name: "dense_2/kernel/Initializer/random_uniform/sub"
  op: "Sub"
  input: "dense_2/kernel/Initializer/random_uniform/max"
  input: "dense_2/kernel/Initializer/random_uniform/min"
  attr {
    key: "T"
    value {
      type: DT_FLOAT
    }
  }
  attr {
    key: "_class"
    value {
      list {
        s: "loc:@dense_2/kernel"
      }
    }
  }
  attr {
    key: "_output_shapes"
    value {
      list {
        shape {
        }
      }
    }
  }
}
node {
  name: "dense_2/kernel/Initializer/random_uniform/mul"
  op: "Mul"
  input: "dense_2/kernel/Initializer/random_uniform/RandomUniform"
  input: "dense_2/kernel/Initializer/random_uniform/sub"
  attr {
    key: "T"
    value {
      type: DT_FLOAT
    }
  }
  attr {
    key: "_class"
    value {
      list {
        s: "loc:@dense_2/kernel"
      }
    }
  }
  attr {
    key: "_output_shapes"
    value {
      list {
        shape {
          dim {
            size: 10
          }
          dim {
            size: 1
          }
        }
      }
    }
  }
}
node {
  name: "dense_2/kernel/Initializer/random_uniform"
  op: "Add"
  input: "dense_2/kernel/Initializer/random_uniform/mul"
  input: "dense_2/kernel/Initializer/random_uniform/min"
  attr {
    key: "T"
    value {
      type: DT_FLOAT
    }
  }
  attr {
    key: "_class"
    value {
      list {
        s: "loc:@dense_2/kernel"
      }
    }
  }
  attr {
    key: "_output_shapes"
    value {
      list {
        shape {
          dim {
            size: 10
          }
          dim {
            size: 1
          }
        }
      }
    }
  }
}
node {
  name: "dense_2/kernel"
  op: "VariableV2"
  attr {
    key: "_class"
    value {
      list {
        s: "loc:@dense_2/kernel"
      }
    }
  }
  attr {
    key: "_output_shapes"
    value {
      list {
        shape {
          dim {
            size: 10
          }
          dim {
            size: 1
          }
        }
      }
    }
  }
  attr {
    key: "container"
    value {
      s: ""
    }
  }
  attr {
    key: "dtype"
    value {
      type: DT_FLOAT
    }
  }
  attr {
    key: "shape"
    value {
      shape {
        dim {
          size: 10
        }
        dim {
          size: 1
        }
      }
    }
  }
  attr {
    key: "shared_name"
    value {
      s: ""
    }
  }
}
node {
  name: "dense_2/kernel/Assign"
  op: "Assign"
  input: "dense_2/kernel"
  input: "dense_2/kernel/Initializer/random_uniform"
  attr {
    key: "T"
    value {
      type: DT_FLOAT
    }
  }
  attr {
    key: "_class"
    value {
      list {
        s: "loc:@dense_2/kernel"
      }
    }
  }
  attr {
    key: "_output_shapes"
    value {
      list {
        shape {
          dim {
            size: 10
          }
          dim {
            size: 1
          }
        }
      }
    }
  }
  attr {
    key: "use_locking"
    value {
      b: true
    }
  }
  attr {
    key: "validate_shape"
    value {
      b: true
    }
  }
}
node {
  name: "dense_2/kernel/read"
  op: "Identity"
  input: "dense_2/kernel"
  attr {
    key: "T"
    value {
      type: DT_FLOAT
    }
  }
  attr {
    key: "_class"
    value {
      list {
        s: "loc:@dense_2/kernel"
      }
    }
  }
  attr {
    key: "_output_shapes"
    value {
      list {
        shape {
          dim {
            size: 10
          }
          dim {
            size: 1
          }
        }
      }
    }
  }
}
node {
  name: "dense_2/bias/Initializer/zeros"
  op: "Const"
  attr {
    key: "_class"
    value {
      list {
        s: "loc:@dense_2/bias"
      }
    }
  }
  attr {
    key: "_output_shapes"
    value {
      list {
        shape {
          dim {
            size: 1
          }
        }
      }
    }
  }
  attr {
    key: "dtype"
    value {
      type: DT_FLOAT
    }
  }
  attr {
    key: "value"
    value {
      tensor {
        dtype: DT_FLOAT
        tensor_shape {
          dim {
            size: 1
          }
        }
        float_val: 0.0
      }
    }
  }
}
node {
  name: "dense_2/bias"
  op: "VariableV2"
  attr {
    key: "_class"
    value {
      list {
        s: "loc:@dense_2/bias"
      }
    }
  }
  attr {
    key: "_output_shapes"
    value {
      list {
        shape {
          dim {
            size: 1
          }
        }
      }
    }
  }
  attr {
    key: "container"
    value {
      s: ""
    }
  }
  attr {
    key: "dtype"
    value {
      type: DT_FLOAT
    }
  }
  attr {
    key: "shape"
    value {
      shape {
        dim {
          size: 1
        }
      }
    }
  }
  attr {
    key: "shared_name"
    value {
      s: ""
    }
  }
}
node {
  name: "dense_2/bias/Assign"
  op: "Assign"
  input: "dense_2/bias"
  input: "dense_2/bias/Initializer/zeros"
  attr {
    key: "T"
    value {
      type: DT_FLOAT
    }
  }
  attr {
    key: "_class"
    value {
      list {
        s: "loc:@dense_2/bias"
      }
    }
  }
  attr {
    key: "_output_shapes"
    value {
      list {
        shape {
          dim {
            size: 1
          }
        }
      }
    }
  }
  attr {
    key: "use_locking"
    value {
      b: true
    }
  }
  attr {
    key: "validate_shape"
    value {
      b: true
    }
  }
}
node {
  name: "dense_2/bias/read"
  op: "Identity"
  input: "dense_2/bias"
  attr {
    key: "T"
    value {
      type: DT_FLOAT
    }
  }
  attr {
    key: "_class"
    value {
      list {
        s: "loc:@dense_2/bias"
      }
    }
  }
  attr {
    key: "_output_shapes"
    value {
      list {
        shape {
          dim {
            size: 1
          }
        }
      }
    }
  }
}
node {
  name: "dense_3/MatMul"
  op: "MatMul"
  input: "dense_2/Relu"
  input: "dense_2/kernel/read"
  attr {
    key: "T"
    value {
      type: DT_FLOAT
    }
  }
  attr {
    key: "_output_shapes"
    value {
      list {
        shape {
          dim {
            size: -1
          }
          dim {
            size: 1
          }
        }
      }
    }
  }
  attr {
    key: "transpose_a"
    value {
      b: false
    }
  }
  attr {
    key: "transpose_b"
    value {
      b: false
    }
  }
}
node {
  name: "dense_3/BiasAdd"
  op: "BiasAdd"
  input: "dense_3/MatMul"
  input: "dense_2/bias/read"
  attr {
    key: "T"
    value {
      type: DT_FLOAT
    }
  }
  attr {
    key: "_output_shapes"
    value {
      list {
        shape {
          dim {
            size: -1
          }
          dim {
            size: 1
          }
        }
      }
    }
  }
  attr {
    key: "data_format"
    value {
      s: "NHWC"
    }
  }
}
node {
  name: "mean_squared_error/ToFloat_1"
  op: "Cast"
  input: "shuffle_batch:3"
  attr {
    key: "DstT"
    value {
      type: DT_FLOAT
    }
  }
  attr {
    key: "SrcT"
    value {
      type: DT_INT32
    }
  }
  attr {
    key: "_output_shapes"
    value {
      list {
        shape {
          dim {
            size: -1
          }
          dim {
            size: 1
          }
        }
      }
    }
  }
}
node {
  name: "mean_squared_error/SquaredDifference"
  op: "SquaredDifference"
  input: "dense_3/BiasAdd"
  input: "mean_squared_error/ToFloat_1"
  attr {
    key: "T"
    value {
      type: DT_FLOAT
    }
  }
  attr {
    key: "_output_shapes"
    value {
      list {
        shape {
          dim {
            size: -1
          }
          dim {
            size: 1
          }
        }
      }
    }
  }
}
node {
  name: "mean_squared_error/assert_broadcastable/weights"
  op: "Const"
  attr {
    key: "_output_shapes"
    value {
      list {
        shape {
        }
      }
    }
  }
  attr {
    key: "dtype"
    value {
      type: DT_FLOAT
    }
  }
  attr {
    key: "value"
    value {
      tensor {
        dtype: DT_FLOAT
        tensor_shape {
        }
        float_val: 1.0
      }
    }
  }
}
node {
  name: "mean_squared_error/assert_broadcastable/weights/shape"
  op: "Const"
  attr {
    key: "_output_shapes"
    value {
      list {
        shape {
          dim {
          }
        }
      }
    }
  }
  attr {
    key: "dtype"
    value {
      type: DT_INT32
    }
  }
  attr {
    key: "value"
    value {
      tensor {
        dtype: DT_INT32
        tensor_shape {
          dim {
          }
        }
      }
    }
  }
}
node {
  name: "mean_squared_error/assert_broadcastable/weights/rank"
  op: "Const"
  attr {
    key: "_output_shapes"
    value {
      list {
        shape {
        }
      }
    }
  }
  attr {
    key: "dtype"
    value {
      type: DT_INT32
    }
  }
  attr {
    key: "value"
    value {
      tensor {
        dtype: DT_INT32
        tensor_shape {
        }
        int_val: 0
      }
    }
  }
}
node {
  name: "mean_squared_error/assert_broadcastable/values/shape"
  op: "Shape"
  input: "mean_squared_error/SquaredDifference"
  attr {
    key: "T"
    value {
      type: DT_FLOAT
    }
  }
  attr {
    key: "_output_shapes"
    value {
      list {
        shape {
          dim {
            size: 2
          }
        }
      }
    }
  }
  attr {
    key: "out_type"
    value {
      type: DT_INT32
    }
  }
}
node {
  name: "mean_squared_error/assert_broadcastable/values/rank"
  op: "Const"
  attr {
    key: "_output_shapes"
    value {
      list {
        shape {
        }
      }
    }
  }
  attr {
    key: "dtype"
    value {
      type: DT_INT32
    }
  }
  attr {
    key: "value"
    value {
      tensor {
        dtype: DT_INT32
        tensor_shape {
        }
        int_val: 2
      }
    }
  }
}
node {
  name: "mean_squared_error/assert_broadcastable/static_scalar_check_success"
  op: "NoOp"
}
node {
  name: "mean_squared_error/ToFloat_3/x"
  op: "Const"
  input: "^mean_squared_error/assert_broadcastable/static_scalar_check_success"
  attr {
    key: "_output_shapes"
    value {
      list {
        shape {
        }
      }
    }
  }
  attr {
    key: "dtype"
    value {
      type: DT_FLOAT
    }
  }
  attr {
    key: "value"
    value {
      tensor {
        dtype: DT_FLOAT
        tensor_shape {
        }
        float_val: 1.0
      }
    }
  }
}
node {
  name: "mean_squared_error/Mul"
  op: "Mul"
  input: "mean_squared_error/SquaredDifference"
  input: "mean_squared_error/ToFloat_3/x"
  attr {
    key: "T"
    value {
      type: DT_FLOAT
    }
  }
  attr {
    key: "_output_shapes"
    value {
      list {
        shape {
          dim {
            size: -1
          }
          dim {
            size: 1
          }
        }
      }
    }
  }
}
node {
  name: "mean_squared_error/Const"
  op: "Const"
  input: "^mean_squared_error/assert_broadcastable/static_scalar_check_success"
  attr {
    key: "_output_shapes"
    value {
      list {
        shape {
          dim {
            size: 2
          }
        }
      }
    }
  }
  attr {
    key: "dtype"
    value {
      type: DT_INT32
    }
  }
  attr {
    key: "value"
    value {
      tensor {
        dtype: DT_INT32
        tensor_shape {
          dim {
            size: 2
          }
        }
        tensor_content: "\000\000\000\000\001\000\000\000"
      }
    }
  }
}
node {
  name: "mean_squared_error/Sum"
  op: "Sum"
  input: "mean_squared_error/Mul"
  input: "mean_squared_error/Const"
  attr {
    key: "T"
    value {
      type: DT_FLOAT
    }
  }
  attr {
    key: "Tidx"
    value {
      type: DT_INT32
    }
  }
  attr {
    key: "_output_shapes"
    value {
      list {
        shape {
        }
      }
    }
  }
  attr {
    key: "keep_dims"
    value {
      b: false
    }
  }
}
node {
  name: "mean_squared_error/num_present/Equal/y"
  op: "Const"
  input: "^mean_squared_error/assert_broadcastable/static_scalar_check_success"
  attr {
    key: "_output_shapes"
    value {
      list {
        shape {
        }
      }
    }
  }
  attr {
    key: "dtype"
    value {
      type: DT_FLOAT
    }
  }
  attr {
    key: "value"
    value {
      tensor {
        dtype: DT_FLOAT
        tensor_shape {
        }
        float_val: 0.0
      }
    }
  }
}
node {
  name: "mean_squared_error/num_present/Equal"
  op: "Equal"
  input: "mean_squared_error/ToFloat_3/x"
  input: "mean_squared_error/num_present/Equal/y"
  attr {
    key: "T"
    value {
      type: DT_FLOAT
    }
  }
  attr {
    key: "_output_shapes"
    value {
      list {
        shape {
        }
      }
    }
  }
}
node {
  name: "mean_squared_error/num_present/zeros_like"
  op: "Const"
  input: "^mean_squared_error/assert_broadcastable/static_scalar_check_success"
  attr {
    key: "_output_shapes"
    value {
      list {
        shape {
        }
      }
    }
  }
  attr {
    key: "dtype"
    value {
      type: DT_FLOAT
    }
  }
  attr {
    key: "value"
    value {
      tensor {
        dtype: DT_FLOAT
        tensor_shape {
        }
        float_val: 0.0
      }
    }
  }
}
node {
  name: "mean_squared_error/num_present/ones_like/Shape"
  op: "Const"
  input: "^mean_squared_error/assert_broadcastable/static_scalar_check_success"
  attr {
    key: "_output_shapes"
    value {
      list {
        shape {
          dim {
          }
        }
      }
    }
  }
  attr {
    key: "dtype"
    value {
      type: DT_INT32
    }
  }
  attr {
    key: "value"
    value {
      tensor {
        dtype: DT_INT32
        tensor_shape {
          dim {
          }
        }
      }
    }
  }
}
node {
  name: "mean_squared_error/num_present/ones_like/Const"
  op: "Const"
  input: "^mean_squared_error/assert_broadcastable/static_scalar_check_success"
  attr {
    key: "_output_shapes"
    value {
      list {
        shape {
        }
      }
    }
  }
  attr {
    key: "dtype"
    value {
      type: DT_FLOAT
    }
  }
  attr {
    key: "value"
    value {
      tensor {
        dtype: DT_FLOAT
        tensor_shape {
        }
        float_val: 1.0
      }
    }
  }
}
node {
  name: "mean_squared_error/num_present/ones_like"
  op: "Fill"
  input: "mean_squared_error/num_present/ones_like/Shape"
  input: "mean_squared_error/num_present/ones_like/Const"
  attr {
    key: "T"
    value {
      type: DT_FLOAT
    }
  }
  attr {
    key: "_output_shapes"
    value {
      list {
        shape {
        }
      }
    }
  }
}
node {
  name: "mean_squared_error/num_present/Select"
  op: "Select"
  input: "mean_squared_error/num_present/Equal"
  input: "mean_squared_error/num_present/zeros_like"
  input: "mean_squared_error/num_present/ones_like"
  attr {
    key: "T"
    value {
      type: DT_FLOAT
    }
  }
  attr {
    key: "_output_shapes"
    value {
      list {
        shape {
        }
      }
    }
  }
}
node {
  name: "mean_squared_error/num_present/broadcast_weights/assert_broadcastable/weights/shape"
  op: "Const"
  input: "^mean_squared_error/assert_broadcastable/static_scalar_check_success"
  attr {
    key: "_output_shapes"
    value {
      list {
        shape {
          dim {
          }
        }
      }
    }
  }
  attr {
    key: "dtype"
    value {
      type: DT_INT32
    }
  }
  attr {
    key: "value"
    value {
      tensor {
        dtype: DT_INT32
        tensor_shape {
          dim {
          }
        }
      }
    }
  }
}
node {
  name: "mean_squared_error/num_present/broadcast_weights/assert_broadcastable/weights/rank"
  op: "Const"
  input: "^mean_squared_error/assert_broadcastable/static_scalar_check_success"
  attr {
    key: "_output_shapes"
    value {
      list {
        shape {
        }
      }
    }
  }
  attr {
    key: "dtype"
    value {
      type: DT_INT32
    }
  }
  attr {
    key: "value"
    value {
      tensor {
        dtype: DT_INT32
        tensor_shape {
        }
        int_val: 0
      }
    }
  }
}
node {
  name: "mean_squared_error/num_present/broadcast_weights/assert_broadcastable/values/shape"
  op: "Shape"
  input: "mean_squared_error/SquaredDifference"
  input: "^mean_squared_error/assert_broadcastable/static_scalar_check_success"
  attr {
    key: "T"
    value {
      type: DT_FLOAT
    }
  }
  attr {
    key: "_output_shapes"
    value {
      list {
        shape {
          dim {
            size: 2
          }
        }
      }
    }
  }
  attr {
    key: "out_type"
    value {
      type: DT_INT32
    }
  }
}
node {
  name: "mean_squared_error/num_present/broadcast_weights/assert_broadcastable/values/rank"
  op: "Const"
  input: "^mean_squared_error/assert_broadcastable/static_scalar_check_success"
  attr {
    key: "_output_shapes"
    value {
      list {
        shape {
        }
      }
    }
  }
  attr {
    key: "dtype"
    value {
      type: DT_INT32
    }
  }
  attr {
    key: "value"
    value {
      tensor {
        dtype: DT_INT32
        tensor_shape {
        }
        int_val: 2
      }
    }
  }
}
node {
  name: "mean_squared_error/num_present/broadcast_weights/assert_broadcastable/static_scalar_check_success"
  op: "NoOp"
  input: "^mean_squared_error/assert_broadcastable/static_scalar_check_success"
}
node {
  name: "mean_squared_error/num_present/broadcast_weights/ones_like/Shape"
  op: "Shape"
  input: "mean_squared_error/SquaredDifference"
  input: "^mean_squared_error/assert_broadcastable/static_scalar_check_success"
  input: "^mean_squared_error/num_present/broadcast_weights/assert_broadcastable/static_scalar_check_success"
  attr {
    key: "T"
    value {
      type: DT_FLOAT
    }
  }
  attr {
    key: "_output_shapes"
    value {
      list {
        shape {
          dim {
            size: 2
          }
        }
      }
    }
  }
  attr {
    key: "out_type"
    value {
      type: DT_INT32
    }
  }
}
node {
  name: "mean_squared_error/num_present/broadcast_weights/ones_like/Const"
  op: "Const"
  input: "^mean_squared_error/assert_broadcastable/static_scalar_check_success"
  input: "^mean_squared_error/num_present/broadcast_weights/assert_broadcastable/static_scalar_check_success"
  attr {
    key: "_output_shapes"
    value {
      list {
        shape {
        }
      }
    }
  }
  attr {
    key: "dtype"
    value {
      type: DT_FLOAT
    }
  }
  attr {
    key: "value"
    value {
      tensor {
        dtype: DT_FLOAT
        tensor_shape {
        }
        float_val: 1.0
      }
    }
  }
}
node {
  name: "mean_squared_error/num_present/broadcast_weights/ones_like"
  op: "Fill"
  input: "mean_squared_error/num_present/broadcast_weights/ones_like/Shape"
  input: "mean_squared_error/num_present/broadcast_weights/ones_like/Const"
  attr {
    key: "T"
    value {
      type: DT_FLOAT
    }
  }
  attr {
    key: "_output_shapes"
    value {
      list {
        shape {
          dim {
            size: -1
          }
          dim {
            size: 1
          }
        }
      }
    }
  }
}
node {
  name: "mean_squared_error/num_present/broadcast_weights"
  op: "Mul"
  input: "mean_squared_error/num_present/Select"
  input: "mean_squared_error/num_present/broadcast_weights/ones_like"
  attr {
    key: "T"
    value {
      type: DT_FLOAT
    }
  }
  attr {
    key: "_output_shapes"
    value {
      list {
        shape {
          dim {
            size: -1
          }
          dim {
            size: 1
          }
        }
      }
    }
  }
}
node {
  name: "mean_squared_error/num_present/Const"
  op: "Const"
  input: "^mean_squared_error/assert_broadcastable/static_scalar_check_success"
  attr {
    key: "_output_shapes"
    value {
      list {
        shape {
          dim {
            size: 2
          }
        }
      }
    }
  }
  attr {
    key: "dtype"
    value {
      type: DT_INT32
    }
  }
  attr {
    key: "value"
    value {
      tensor {
        dtype: DT_INT32
        tensor_shape {
          dim {
            size: 2
          }
        }
        tensor_content: "\000\000\000\000\001\000\000\000"
      }
    }
  }
}
node {
  name: "mean_squared_error/num_present"
  op: "Sum"
  input: "mean_squared_error/num_present/broadcast_weights"
  input: "mean_squared_error/num_present/Const"
  attr {
    key: "T"
    value {
      type: DT_FLOAT
    }
  }
  attr {
    key: "Tidx"
    value {
      type: DT_INT32
    }
  }
  attr {
    key: "_output_shapes"
    value {
      list {
        shape {
        }
      }
    }
  }
  attr {
    key: "keep_dims"
    value {
      b: false
    }
  }
}
node {
  name: "mean_squared_error/Const_1"
  op: "Const"
  input: "^mean_squared_error/assert_broadcastable/static_scalar_check_success"
  attr {
    key: "_output_shapes"
    value {
      list {
        shape {
          dim {
          }
        }
      }
    }
  }
  attr {
    key: "dtype"
    value {
      type: DT_INT32
    }
  }
  attr {
    key: "value"
    value {
      tensor {
        dtype: DT_INT32
        tensor_shape {
          dim {
          }
        }
      }
    }
  }
}
node {
  name: "mean_squared_error/Sum_1"
  op: "Sum"
  input: "mean_squared_error/Sum"
  input: "mean_squared_error/Const_1"
  attr {
    key: "T"
    value {
      type: DT_FLOAT
    }
  }
  attr {
    key: "Tidx"
    value {
      type: DT_INT32
    }
  }
  attr {
    key: "_output_shapes"
    value {
      list {
        shape {
        }
      }
    }
  }
  attr {
    key: "keep_dims"
    value {
      b: false
    }
  }
}
node {
  name: "mean_squared_error/Greater/y"
  op: "Const"
  input: "^mean_squared_error/assert_broadcastable/static_scalar_check_success"
  attr {
    key: "_output_shapes"
    value {
      list {
        shape {
        }
      }
    }
  }
  attr {
    key: "dtype"
    value {
      type: DT_FLOAT
    }
  }
  attr {
    key: "value"
    value {
      tensor {
        dtype: DT_FLOAT
        tensor_shape {
        }
        float_val: 0.0
      }
    }
  }
}
node {
  name: "mean_squared_error/Greater"
  op: "Greater"
  input: "mean_squared_error/num_present"
  input: "mean_squared_error/Greater/y"
  attr {
    key: "T"
    value {
      type: DT_FLOAT
    }
  }
  attr {
    key: "_output_shapes"
    value {
      list {
        shape {
        }
      }
    }
  }
}
node {
  name: "mean_squared_error/Equal/y"
  op: "Const"
  input: "^mean_squared_error/assert_broadcastable/static_scalar_check_success"
  attr {
    key: "_output_shapes"
    value {
      list {
        shape {
        }
      }
    }
  }
  attr {
    key: "dtype"
    value {
      type: DT_FLOAT
    }
  }
  attr {
    key: "value"
    value {
      tensor {
        dtype: DT_FLOAT
        tensor_shape {
        }
        float_val: 0.0
      }
    }
  }
}
node {
  name: "mean_squared_error/Equal"
  op: "Equal"
  input: "mean_squared_error/num_present"
  input: "mean_squared_error/Equal/y"
  attr {
    key: "T"
    value {
      type: DT_FLOAT
    }
  }
  attr {
    key: "_output_shapes"
    value {
      list {
        shape {
        }
      }
    }
  }
}
node {
  name: "mean_squared_error/ones_like/Shape"
  op: "Const"
  input: "^mean_squared_error/assert_broadcastable/static_scalar_check_success"
  attr {
    key: "_output_shapes"
    value {
      list {
        shape {
          dim {
          }
        }
      }
    }
  }
  attr {
    key: "dtype"
    value {
      type: DT_INT32
    }
  }
  attr {
    key: "value"
    value {
      tensor {
        dtype: DT_INT32
        tensor_shape {
          dim {
          }
        }
      }
    }
  }
}
node {
  name: "mean_squared_error/ones_like/Const"
  op: "Const"
  input: "^mean_squared_error/assert_broadcastable/static_scalar_check_success"
  attr {
    key: "_output_shapes"
    value {
      list {
        shape {
        }
      }
    }
  }
  attr {
    key: "dtype"
    value {
      type: DT_FLOAT
    }
  }
  attr {
    key: "value"
    value {
      tensor {
        dtype: DT_FLOAT
        tensor_shape {
        }
        float_val: 1.0
      }
    }
  }
}
node {
  name: "mean_squared_error/ones_like"
  op: "Fill"
  input: "mean_squared_error/ones_like/Shape"
  input: "mean_squared_error/ones_like/Const"
  attr {
    key: "T"
    value {
      type: DT_FLOAT
    }
  }
  attr {
    key: "_output_shapes"
    value {
      list {
        shape {
        }
      }
    }
  }
}
node {
  name: "mean_squared_error/Select"
  op: "Select"
  input: "mean_squared_error/Equal"
  input: "mean_squared_error/ones_like"
  input: "mean_squared_error/num_present"
  attr {
    key: "T"
    value {
      type: DT_FLOAT
    }
  }
  attr {
    key: "_output_shapes"
    value {
      list {
        shape {
        }
      }
    }
  }
}
node {
  name: "mean_squared_error/div"
  op: "RealDiv"
  input: "mean_squared_error/Sum_1"
  input: "mean_squared_error/Select"
  attr {
    key: "T"
    value {
      type: DT_FLOAT
    }
  }
  attr {
    key: "_output_shapes"
    value {
      list {
        shape {
        }
      }
    }
  }
}
node {
  name: "mean_squared_error/zeros_like"
  op: "Const"
  input: "^mean_squared_error/assert_broadcastable/static_scalar_check_success"
  attr {
    key: "_output_shapes"
    value {
      list {
        shape {
        }
      }
    }
  }
  attr {
    key: "dtype"
    value {
      type: DT_FLOAT
    }
  }
  attr {
    key: "value"
    value {
      tensor {
        dtype: DT_FLOAT
        tensor_shape {
        }
        float_val: 0.0
      }
    }
  }
}
node {
  name: "mean_squared_error/value"
  op: "Select"
  input: "mean_squared_error/Greater"
  input: "mean_squared_error/div"
  input: "mean_squared_error/zeros_like"
  attr {
    key: "T"
    value {
      type: DT_FLOAT
    }
  }
  attr {
    key: "_output_shapes"
    value {
      list {
        shape {
        }
      }
    }
  }
}
node {
  name: "OptimizeLoss/learning_rate/Initializer/Const"
  op: "Const"
  attr {
    key: "_class"
    value {
      list {
        s: "loc:@OptimizeLoss/learning_rate"
      }
    }
  }
  attr {
    key: "_output_shapes"
    value {
      list {
        shape {
        }
      }
    }
  }
  attr {
    key: "dtype"
    value {
      type: DT_FLOAT
    }
  }
  attr {
    key: "value"
    value {
      tensor {
        dtype: DT_FLOAT
        tensor_shape {
        }
        float_val: 0.0010000000475
      }
    }
  }
}
node {
  name: "OptimizeLoss/learning_rate"
  op: "VariableV2"
  attr {
    key: "_class"
    value {
      list {
        s: "loc:@OptimizeLoss/learning_rate"
      }
    }
  }
  attr {
    key: "_output_shapes"
    value {
      list {
        shape {
        }
      }
    }
  }
  attr {
    key: "container"
    value {
      s: ""
    }
  }
  attr {
    key: "dtype"
    value {
      type: DT_FLOAT
    }
  }
  attr {
    key: "shape"
    value {
      shape {
      }
    }
  }
  attr {
    key: "shared_name"
    value {
      s: ""
    }
  }
}
node {
  name: "OptimizeLoss/learning_rate/Assign"
  op: "Assign"
  input: "OptimizeLoss/learning_rate"
  input: "OptimizeLoss/learning_rate/Initializer/Const"
  attr {
    key: "T"
    value {
      type: DT_FLOAT
    }
  }
  attr {
    key: "_class"
    value {
      list {
        s: "loc:@OptimizeLoss/learning_rate"
      }
    }
  }
  attr {
    key: "_output_shapes"
    value {
      list {
        shape {
        }
      }
    }
  }
  attr {
    key: "use_locking"
    value {
      b: true
    }
  }
  attr {
    key: "validate_shape"
    value {
      b: true
    }
  }
}
node {
  name: "OptimizeLoss/learning_rate/read"
  op: "Identity"
  input: "OptimizeLoss/learning_rate"
  attr {
    key: "T"
    value {
      type: DT_FLOAT
    }
  }
  attr {
    key: "_class"
    value {
      list {
        s: "loc:@OptimizeLoss/learning_rate"
      }
    }
  }
  attr {
    key: "_output_shapes"
    value {
      list {
        shape {
        }
      }
    }
  }
}
node {
  name: "OptimizeLoss/gradients/Shape"
  op: "Const"
  attr {
    key: "_output_shapes"
    value {
      list {
        shape {
          dim {
          }
        }
      }
    }
  }
  attr {
    key: "dtype"
    value {
      type: DT_INT32
    }
  }
  attr {
    key: "value"
    value {
      tensor {
        dtype: DT_INT32
        tensor_shape {
          dim {
          }
        }
      }
    }
  }
}
node {
  name: "OptimizeLoss/gradients/Const"
  op: "Const"
  attr {
    key: "_output_shapes"
    value {
      list {
        shape {
        }
      }
    }
  }
  attr {
    key: "dtype"
    value {
      type: DT_FLOAT
    }
  }
  attr {
    key: "value"
    value {
      tensor {
        dtype: DT_FLOAT
        tensor_shape {
        }
        float_val: 1.0
      }
    }
  }
}
node {
  name: "OptimizeLoss/gradients/Fill"
  op: "Fill"
  input: "OptimizeLoss/gradients/Shape"
  input: "OptimizeLoss/gradients/Const"
  attr {
    key: "T"
    value {
      type: DT_FLOAT
    }
  }
  attr {
    key: "_output_shapes"
    value {
      list {
        shape {
        }
      }
    }
  }
}
node {
  name: "OptimizeLoss/gradients/mean_squared_error/value_grad/zeros_like"
  op: "Const"
  attr {
    key: "_output_shapes"
    value {
      list {
        shape {
        }
      }
    }
  }
  attr {
    key: "dtype"
    value {
      type: DT_FLOAT
    }
  }
  attr {
    key: "value"
    value {
      tensor {
        dtype: DT_FLOAT
        tensor_shape {
        }
        float_val: 0.0
      }
    }
  }
}
node {
  name: "OptimizeLoss/gradients/mean_squared_error/value_grad/Select"
  op: "Select"
  input: "mean_squared_error/Greater"
  input: "OptimizeLoss/gradients/Fill"
  input: "OptimizeLoss/gradients/mean_squared_error/value_grad/zeros_like"
  attr {
    key: "T"
    value {
      type: DT_FLOAT
    }
  }
  attr {
    key: "_output_shapes"
    value {
      list {
        shape {
        }
      }
    }
  }
}
node {
  name: "OptimizeLoss/gradients/mean_squared_error/value_grad/Select_1"
  op: "Select"
  input: "mean_squared_error/Greater"
  input: "OptimizeLoss/gradients/mean_squared_error/value_grad/zeros_like"
  input: "OptimizeLoss/gradients/Fill"
  attr {
    key: "T"
    value {
      type: DT_FLOAT
    }
  }
  attr {
    key: "_output_shapes"
    value {
      list {
        shape {
        }
      }
    }
  }
}
node {
  name: "OptimizeLoss/gradients/mean_squared_error/value_grad/tuple/group_deps"
  op: "NoOp"
  input: "^OptimizeLoss/gradients/mean_squared_error/value_grad/Select"
  input: "^OptimizeLoss/gradients/mean_squared_error/value_grad/Select_1"
}
node {
  name: "OptimizeLoss/gradients/mean_squared_error/value_grad/tuple/control_dependency"
  op: "Identity"
  input: "OptimizeLoss/gradients/mean_squared_error/value_grad/Select"
  input: "^OptimizeLoss/gradients/mean_squared_error/value_grad/tuple/group_deps"
  attr {
    key: "T"
    value {
      type: DT_FLOAT
    }
  }
  attr {
    key: "_class"
    value {
      list {
        s: "loc:@OptimizeLoss/gradients/mean_squared_error/value_grad/Select"
      }
    }
  }
  attr {
    key: "_output_shapes"
    value {
      list {
        shape {
        }
      }
    }
  }
}
node {
  name: "OptimizeLoss/gradients/mean_squared_error/value_grad/tuple/control_dependency_1"
  op: "Identity"
  input: "OptimizeLoss/gradients/mean_squared_error/value_grad/Select_1"
  input: "^OptimizeLoss/gradients/mean_squared_error/value_grad/tuple/group_deps"
  attr {
    key: "T"
    value {
      type: DT_FLOAT
    }
  }
  attr {
    key: "_class"
    value {
      list {
        s: "loc:@OptimizeLoss/gradients/mean_squared_error/value_grad/Select_1"
      }
    }
  }
  attr {
    key: "_output_shapes"
    value {
      list {
        shape {
        }
      }
    }
  }
}
node {
  name: "OptimizeLoss/gradients/mean_squared_error/div_grad/Shape"
  op: "Const"
  attr {
    key: "_output_shapes"
    value {
      list {
        shape {
          dim {
          }
        }
      }
    }
  }
  attr {
    key: "dtype"
    value {
      type: DT_INT32
    }
  }
  attr {
    key: "value"
    value {
      tensor {
        dtype: DT_INT32
        tensor_shape {
          dim {
          }
        }
      }
    }
  }
}
node {
  name: "OptimizeLoss/gradients/mean_squared_error/div_grad/Shape_1"
  op: "Const"
  attr {
    key: "_output_shapes"
    value {
      list {
        shape {
          dim {
          }
        }
      }
    }
  }
  attr {
    key: "dtype"
    value {
      type: DT_INT32
    }
  }
  attr {
    key: "value"
    value {
      tensor {
        dtype: DT_INT32
        tensor_shape {
          dim {
          }
        }
      }
    }
  }
}
node {
  name: "OptimizeLoss/gradients/mean_squared_error/div_grad/BroadcastGradientArgs"
  op: "BroadcastGradientArgs"
  input: "OptimizeLoss/gradients/mean_squared_error/div_grad/Shape"
  input: "OptimizeLoss/gradients/mean_squared_error/div_grad/Shape_1"
  attr {
    key: "T"
    value {
      type: DT_INT32
    }
  }
  attr {
    key: "_output_shapes"
    value {
      list {
        shape {
          dim {
            size: -1
          }
        }
        shape {
          dim {
            size: -1
          }
        }
      }
    }
  }
}
node {
  name: "OptimizeLoss/gradients/mean_squared_error/div_grad/RealDiv"
  op: "RealDiv"
  input: "OptimizeLoss/gradients/mean_squared_error/value_grad/tuple/control_dependency"
  input: "mean_squared_error/Select"
  attr {
    key: "T"
    value {
      type: DT_FLOAT
    }
  }
  attr {
    key: "_output_shapes"
    value {
      list {
        shape {
        }
      }
    }
  }
}
node {
  name: "OptimizeLoss/gradients/mean_squared_error/div_grad/Sum"
  op: "Sum"
  input: "OptimizeLoss/gradients/mean_squared_error/div_grad/RealDiv"
  input: "OptimizeLoss/gradients/mean_squared_error/div_grad/BroadcastGradientArgs"
  attr {
    key: "T"
    value {
      type: DT_FLOAT
    }
  }
  attr {
    key: "Tidx"
    value {
      type: DT_INT32
    }
  }
  attr {
    key: "_output_shapes"
    value {
      list {
        shape {
          unknown_rank: true
        }
      }
    }
  }
  attr {
    key: "keep_dims"
    value {
      b: false
    }
  }
}
node {
  name: "OptimizeLoss/gradients/mean_squared_error/div_grad/Reshape"
  op: "Reshape"
  input: "OptimizeLoss/gradients/mean_squared_error/div_grad/Sum"
  input: "OptimizeLoss/gradients/mean_squared_error/div_grad/Shape"
  attr {
    key: "T"
    value {
      type: DT_FLOAT
    }
  }
  attr {
    key: "Tshape"
    value {
      type: DT_INT32
    }
  }
  attr {
    key: "_output_shapes"
    value {
      list {
        shape {
        }
      }
    }
  }
}
node {
  name: "OptimizeLoss/gradients/mean_squared_error/div_grad/Neg"
  op: "Neg"
  input: "mean_squared_error/Sum_1"
  attr {
    key: "T"
    value {
      type: DT_FLOAT
    }
  }
  attr {
    key: "_output_shapes"
    value {
      list {
        shape {
        }
      }
    }
  }
}
node {
  name: "OptimizeLoss/gradients/mean_squared_error/div_grad/RealDiv_1"
  op: "RealDiv"
  input: "OptimizeLoss/gradients/mean_squared_error/div_grad/Neg"
  input: "mean_squared_error/Select"
  attr {
    key: "T"
    value {
      type: DT_FLOAT
    }
  }
  attr {
    key: "_output_shapes"
    value {
      list {
        shape {
        }
      }
    }
  }
}
node {
  name: "OptimizeLoss/gradients/mean_squared_error/div_grad/RealDiv_2"
  op: "RealDiv"
  input: "OptimizeLoss/gradients/mean_squared_error/div_grad/RealDiv_1"
  input: "mean_squared_error/Select"
  attr {
    key: "T"
    value {
      type: DT_FLOAT
    }
  }
  attr {
    key: "_output_shapes"
    value {
      list {
        shape {
        }
      }
    }
  }
}
node {
  name: "OptimizeLoss/gradients/mean_squared_error/div_grad/mul"
  op: "Mul"
  input: "OptimizeLoss/gradients/mean_squared_error/value_grad/tuple/control_dependency"
  input: "OptimizeLoss/gradients/mean_squared_error/div_grad/RealDiv_2"
  attr {
    key: "T"
    value {
      type: DT_FLOAT
    }
  }
  attr {
    key: "_output_shapes"
    value {
      list {
        shape {
        }
      }
    }
  }
}
node {
  name: "OptimizeLoss/gradients/mean_squared_error/div_grad/Sum_1"
  op: "Sum"
  input: "OptimizeLoss/gradients/mean_squared_error/div_grad/mul"
  input: "OptimizeLoss/gradients/mean_squared_error/div_grad/BroadcastGradientArgs:1"
  attr {
    key: "T"
    value {
      type: DT_FLOAT
    }
  }
  attr {
    key: "Tidx"
    value {
      type: DT_INT32
    }
  }
  attr {
    key: "_output_shapes"
    value {
      list {
        shape {
          unknown_rank: true
        }
      }
    }
  }
  attr {
    key: "keep_dims"
    value {
      b: false
    }
  }
}
node {
  name: "OptimizeLoss/gradients/mean_squared_error/div_grad/Reshape_1"
  op: "Reshape"
  input: "OptimizeLoss/gradients/mean_squared_error/div_grad/Sum_1"
  input: "OptimizeLoss/gradients/mean_squared_error/div_grad/Shape_1"
  attr {
    key: "T"
    value {
      type: DT_FLOAT
    }
  }
  attr {
    key: "Tshape"
    value {
      type: DT_INT32
    }
  }
  attr {
    key: "_output_shapes"
    value {
      list {
        shape {
        }
      }
    }
  }
}
node {
  name: "OptimizeLoss/gradients/mean_squared_error/div_grad/tuple/group_deps"
  op: "NoOp"
  input: "^OptimizeLoss/gradients/mean_squared_error/div_grad/Reshape"
  input: "^OptimizeLoss/gradients/mean_squared_error/div_grad/Reshape_1"
}
node {
  name: "OptimizeLoss/gradients/mean_squared_error/div_grad/tuple/control_dependency"
  op: "Identity"
  input: "OptimizeLoss/gradients/mean_squared_error/div_grad/Reshape"
  input: "^OptimizeLoss/gradients/mean_squared_error/div_grad/tuple/group_deps"
  attr {
    key: "T"
    value {
      type: DT_FLOAT
    }
  }
  attr {
    key: "_class"
    value {
      list {
        s: "loc:@OptimizeLoss/gradients/mean_squared_error/div_grad/Reshape"
      }
    }
  }
  attr {
    key: "_output_shapes"
    value {
      list {
        shape {
        }
      }
    }
  }
}
node {
  name: "OptimizeLoss/gradients/mean_squared_error/div_grad/tuple/control_dependency_1"
  op: "Identity"
  input: "OptimizeLoss/gradients/mean_squared_error/div_grad/Reshape_1"
  input: "^OptimizeLoss/gradients/mean_squared_error/div_grad/tuple/group_deps"
  attr {
    key: "T"
    value {
      type: DT_FLOAT
    }
  }
  attr {
    key: "_class"
    value {
      list {
        s: "loc:@OptimizeLoss/gradients/mean_squared_error/div_grad/Reshape_1"
      }
    }
  }
  attr {
    key: "_output_shapes"
    value {
      list {
        shape {
        }
      }
    }
  }
}
node {
  name: "OptimizeLoss/gradients/mean_squared_error/Sum_1_grad/Reshape/shape"
  op: "Const"
  attr {
    key: "_output_shapes"
    value {
      list {
        shape {
          dim {
          }
        }
      }
    }
  }
  attr {
    key: "dtype"
    value {
      type: DT_INT32
    }
  }
  attr {
    key: "value"
    value {
      tensor {
        dtype: DT_INT32
        tensor_shape {
          dim {
          }
        }
      }
    }
  }
}
node {
  name: "OptimizeLoss/gradients/mean_squared_error/Sum_1_grad/Reshape"
  op: "Reshape"
  input: "OptimizeLoss/gradients/mean_squared_error/div_grad/tuple/control_dependency"
  input: "OptimizeLoss/gradients/mean_squared_error/Sum_1_grad/Reshape/shape"
  attr {
    key: "T"
    value {
      type: DT_FLOAT
    }
  }
  attr {
    key: "Tshape"
    value {
      type: DT_INT32
    }
  }
  attr {
    key: "_output_shapes"
    value {
      list {
        shape {
        }
      }
    }
  }
}
node {
  name: "OptimizeLoss/gradients/mean_squared_error/Sum_1_grad/Tile/multiples"
  op: "Const"
  attr {
    key: "_output_shapes"
    value {
      list {
        shape {
          dim {
          }
        }
      }
    }
  }
  attr {
    key: "dtype"
    value {
      type: DT_INT32
    }
  }
  attr {
    key: "value"
    value {
      tensor {
        dtype: DT_INT32
        tensor_shape {
          dim {
          }
        }
      }
    }
  }
}
node {
  name: "OptimizeLoss/gradients/mean_squared_error/Sum_1_grad/Tile"
  op: "Tile"
  input: "OptimizeLoss/gradients/mean_squared_error/Sum_1_grad/Reshape"
  input: "OptimizeLoss/gradients/mean_squared_error/Sum_1_grad/Tile/multiples"
  attr {
    key: "T"
    value {
      type: DT_FLOAT
    }
  }
  attr {
    key: "Tmultiples"
    value {
      type: DT_INT32
    }
  }
  attr {
    key: "_output_shapes"
    value {
      list {
        shape {
        }
      }
    }
  }
}
node {
  name: "OptimizeLoss/gradients/mean_squared_error/Select_grad/zeros_like"
  op: "Const"
  attr {
    key: "_output_shapes"
    value {
      list {
        shape {
        }
      }
    }
  }
  attr {
    key: "dtype"
    value {
      type: DT_FLOAT
    }
  }
  attr {
    key: "value"
    value {
      tensor {
        dtype: DT_FLOAT
        tensor_shape {
        }
        float_val: 0.0
      }
    }
  }
}
node {
  name: "OptimizeLoss/gradients/mean_squared_error/Select_grad/Select"
  op: "Select"
  input: "mean_squared_error/Equal"
  input: "OptimizeLoss/gradients/mean_squared_error/div_grad/tuple/control_dependency_1"
  input: "OptimizeLoss/gradients/mean_squared_error/Select_grad/zeros_like"
  attr {
    key: "T"
    value {
      type: DT_FLOAT
    }
  }
  attr {
    key: "_output_shapes"
    value {
      list {
        shape {
        }
      }
    }
  }
}
node {
  name: "OptimizeLoss/gradients/mean_squared_error/Select_grad/Select_1"
  op: "Select"
  input: "mean_squared_error/Equal"
  input: "OptimizeLoss/gradients/mean_squared_error/Select_grad/zeros_like"
  input: "OptimizeLoss/gradients/mean_squared_error/div_grad/tuple/control_dependency_1"
  attr {
    key: "T"
    value {
      type: DT_FLOAT
    }
  }
  attr {
    key: "_output_shapes"
    value {
      list {
        shape {
        }
      }
    }
  }
}
node {
  name: "OptimizeLoss/gradients/mean_squared_error/Select_grad/tuple/group_deps"
  op: "NoOp"
  input: "^OptimizeLoss/gradients/mean_squared_error/Select_grad/Select"
  input: "^OptimizeLoss/gradients/mean_squared_error/Select_grad/Select_1"
}
node {
  name: "OptimizeLoss/gradients/mean_squared_error/Select_grad/tuple/control_dependency"
  op: "Identity"
  input: "OptimizeLoss/gradients/mean_squared_error/Select_grad/Select"
  input: "^OptimizeLoss/gradients/mean_squared_error/Select_grad/tuple/group_deps"
  attr {
    key: "T"
    value {
      type: DT_FLOAT
    }
  }
  attr {
    key: "_class"
    value {
      list {
        s: "loc:@OptimizeLoss/gradients/mean_squared_error/Select_grad/Select"
      }
    }
  }
  attr {
    key: "_output_shapes"
    value {
      list {
        shape {
        }
      }
    }
  }
}
node {
  name: "OptimizeLoss/gradients/mean_squared_error/Select_grad/tuple/control_dependency_1"
  op: "Identity"
  input: "OptimizeLoss/gradients/mean_squared_error/Select_grad/Select_1"
  input: "^OptimizeLoss/gradients/mean_squared_error/Select_grad/tuple/group_deps"
  attr {
    key: "T"
    value {
      type: DT_FLOAT
    }
  }
  attr {
    key: "_class"
    value {
      list {
        s: "loc:@OptimizeLoss/gradients/mean_squared_error/Select_grad/Select_1"
      }
    }
  }
  attr {
    key: "_output_shapes"
    value {
      list {
        shape {
        }
      }
    }
  }
}
node {
  name: "OptimizeLoss/gradients/mean_squared_error/Sum_grad/Reshape/shape"
  op: "Const"
  attr {
    key: "_output_shapes"
    value {
      list {
        shape {
          dim {
            size: 2
          }
        }
      }
    }
  }
  attr {
    key: "dtype"
    value {
      type: DT_INT32
    }
  }
  attr {
    key: "value"
    value {
      tensor {
        dtype: DT_INT32
        tensor_shape {
          dim {
            size: 2
          }
        }
        tensor_content: "\001\000\000\000\001\000\000\000"
      }
    }
  }
}
node {
  name: "OptimizeLoss/gradients/mean_squared_error/Sum_grad/Reshape"
  op: "Reshape"
  input: "OptimizeLoss/gradients/mean_squared_error/Sum_1_grad/Tile"
  input: "OptimizeLoss/gradients/mean_squared_error/Sum_grad/Reshape/shape"
  attr {
    key: "T"
    value {
      type: DT_FLOAT
    }
  }
  attr {
    key: "Tshape"
    value {
      type: DT_INT32
    }
  }
  attr {
    key: "_output_shapes"
    value {
      list {
        shape {
          dim {
            size: 1
          }
          dim {
            size: 1
          }
        }
      }
    }
  }
}
node {
  name: "OptimizeLoss/gradients/mean_squared_error/Sum_grad/Shape"
  op: "Shape"
  input: "mean_squared_error/Mul"
  attr {
    key: "T"
    value {
      type: DT_FLOAT
    }
  }
  attr {
    key: "_output_shapes"
    value {
      list {
        shape {
          dim {
            size: 2
          }
        }
      }
    }
  }
  attr {
    key: "out_type"
    value {
      type: DT_INT32
    }
  }
}
node {
  name: "OptimizeLoss/gradients/mean_squared_error/Sum_grad/Tile"
  op: "Tile"
  input: "OptimizeLoss/gradients/mean_squared_error/Sum_grad/Reshape"
  input: "OptimizeLoss/gradients/mean_squared_error/Sum_grad/Shape"
  attr {
    key: "T"
    value {
      type: DT_FLOAT
    }
  }
  attr {
    key: "Tmultiples"
    value {
      type: DT_INT32
    }
  }
  attr {
    key: "_output_shapes"
    value {
      list {
        shape {
          dim {
            size: -1
          }
          dim {
            size: 1
          }
        }
      }
    }
  }
}
node {
  name: "OptimizeLoss/gradients/mean_squared_error/Mul_grad/Shape"
  op: "Shape"
  input: "mean_squared_error/SquaredDifference"
  attr {
    key: "T"
    value {
      type: DT_FLOAT
    }
  }
  attr {
    key: "_output_shapes"
    value {
      list {
        shape {
          dim {
            size: 2
          }
        }
      }
    }
  }
  attr {
    key: "out_type"
    value {
      type: DT_INT32
    }
  }
}
node {
  name: "OptimizeLoss/gradients/mean_squared_error/Mul_grad/Shape_1"
  op: "Const"
  attr {
    key: "_output_shapes"
    value {
      list {
        shape {
          dim {
          }
        }
      }
    }
  }
  attr {
    key: "dtype"
    value {
      type: DT_INT32
    }
  }
  attr {
    key: "value"
    value {
      tensor {
        dtype: DT_INT32
        tensor_shape {
          dim {
          }
        }
      }
    }
  }
}
node {
  name: "OptimizeLoss/gradients/mean_squared_error/Mul_grad/BroadcastGradientArgs"
  op: "BroadcastGradientArgs"
  input: "OptimizeLoss/gradients/mean_squared_error/Mul_grad/Shape"
  input: "OptimizeLoss/gradients/mean_squared_error/Mul_grad/Shape_1"
  attr {
    key: "T"
    value {
      type: DT_INT32
    }
  }
  attr {
    key: "_output_shapes"
    value {
      list {
        shape {
          dim {
            size: -1
          }
        }
        shape {
          dim {
            size: -1
          }
        }
      }
    }
  }
}
node {
  name: "OptimizeLoss/gradients/mean_squared_error/Mul_grad/mul"
  op: "Mul"
  input: "OptimizeLoss/gradients/mean_squared_error/Sum_grad/Tile"
  input: "mean_squared_error/ToFloat_3/x"
  attr {
    key: "T"
    value {
      type: DT_FLOAT
    }
  }
  attr {
    key: "_output_shapes"
    value {
      list {
        shape {
          dim {
            size: -1
          }
          dim {
            size: 1
          }
        }
      }
    }
  }
}
node {
  name: "OptimizeLoss/gradients/mean_squared_error/Mul_grad/Sum"
  op: "Sum"
  input: "OptimizeLoss/gradients/mean_squared_error/Mul_grad/mul"
  input: "OptimizeLoss/gradients/mean_squared_error/Mul_grad/BroadcastGradientArgs"
  attr {
    key: "T"
    value {
      type: DT_FLOAT
    }
  }
  attr {
    key: "Tidx"
    value {
      type: DT_INT32
    }
  }
  attr {
    key: "_output_shapes"
    value {
      list {
        shape {
          unknown_rank: true
        }
      }
    }
  }
  attr {
    key: "keep_dims"
    value {
      b: false
    }
  }
}
node {
  name: "OptimizeLoss/gradients/mean_squared_error/Mul_grad/Reshape"
  op: "Reshape"
  input: "OptimizeLoss/gradients/mean_squared_error/Mul_grad/Sum"
  input: "OptimizeLoss/gradients/mean_squared_error/Mul_grad/Shape"
  attr {
    key: "T"
    value {
      type: DT_FLOAT
    }
  }
  attr {
    key: "Tshape"
    value {
      type: DT_INT32
    }
  }
  attr {
    key: "_output_shapes"
    value {
      list {
        shape {
          dim {
            size: -1
          }
          dim {
            size: 1
          }
        }
      }
    }
  }
}
node {
  name: "OptimizeLoss/gradients/mean_squared_error/Mul_grad/mul_1"
  op: "Mul"
  input: "mean_squared_error/SquaredDifference"
  input: "OptimizeLoss/gradients/mean_squared_error/Sum_grad/Tile"
  attr {
    key: "T"
    value {
      type: DT_FLOAT
    }
  }
  attr {
    key: "_output_shapes"
    value {
      list {
        shape {
          dim {
            size: -1
          }
          dim {
            size: 1
          }
        }
      }
    }
  }
}
node {
  name: "OptimizeLoss/gradients/mean_squared_error/Mul_grad/Sum_1"
  op: "Sum"
  input: "OptimizeLoss/gradients/mean_squared_error/Mul_grad/mul_1"
  input: "OptimizeLoss/gradients/mean_squared_error/Mul_grad/BroadcastGradientArgs:1"
  attr {
    key: "T"
    value {
      type: DT_FLOAT
    }
  }
  attr {
    key: "Tidx"
    value {
      type: DT_INT32
    }
  }
  attr {
    key: "_output_shapes"
    value {
      list {
        shape {
          unknown_rank: true
        }
      }
    }
  }
  attr {
    key: "keep_dims"
    value {
      b: false
    }
  }
}
node {
  name: "OptimizeLoss/gradients/mean_squared_error/Mul_grad/Reshape_1"
  op: "Reshape"
  input: "OptimizeLoss/gradients/mean_squared_error/Mul_grad/Sum_1"
  input: "OptimizeLoss/gradients/mean_squared_error/Mul_grad/Shape_1"
  attr {
    key: "T"
    value {
      type: DT_FLOAT
    }
  }
  attr {
    key: "Tshape"
    value {
      type: DT_INT32
    }
  }
  attr {
    key: "_output_shapes"
    value {
      list {
        shape {
        }
      }
    }
  }
}
node {
  name: "OptimizeLoss/gradients/mean_squared_error/Mul_grad/tuple/group_deps"
  op: "NoOp"
  input: "^OptimizeLoss/gradients/mean_squared_error/Mul_grad/Reshape"
  input: "^OptimizeLoss/gradients/mean_squared_error/Mul_grad/Reshape_1"
}
node {
  name: "OptimizeLoss/gradients/mean_squared_error/Mul_grad/tuple/control_dependency"
  op: "Identity"
  input: "OptimizeLoss/gradients/mean_squared_error/Mul_grad/Reshape"
  input: "^OptimizeLoss/gradients/mean_squared_error/Mul_grad/tuple/group_deps"
  attr {
    key: "T"
    value {
      type: DT_FLOAT
    }
  }
  attr {
    key: "_class"
    value {
      list {
        s: "loc:@OptimizeLoss/gradients/mean_squared_error/Mul_grad/Reshape"
      }
    }
  }
  attr {
    key: "_output_shapes"
    value {
      list {
        shape {
          dim {
            size: -1
          }
          dim {
            size: 1
          }
        }
      }
    }
  }
}
node {
  name: "OptimizeLoss/gradients/mean_squared_error/Mul_grad/tuple/control_dependency_1"
  op: "Identity"
  input: "OptimizeLoss/gradients/mean_squared_error/Mul_grad/Reshape_1"
  input: "^OptimizeLoss/gradients/mean_squared_error/Mul_grad/tuple/group_deps"
  attr {
    key: "T"
    value {
      type: DT_FLOAT
    }
  }
  attr {
    key: "_class"
    value {
      list {
        s: "loc:@OptimizeLoss/gradients/mean_squared_error/Mul_grad/Reshape_1"
      }
    }
  }
  attr {
    key: "_output_shapes"
    value {
      list {
        shape {
        }
      }
    }
  }
}
node {
  name: "OptimizeLoss/gradients/mean_squared_error/num_present_grad/Reshape/shape"
  op: "Const"
  attr {
    key: "_output_shapes"
    value {
      list {
        shape {
          dim {
            size: 2
          }
        }
      }
    }
  }
  attr {
    key: "dtype"
    value {
      type: DT_INT32
    }
  }
  attr {
    key: "value"
    value {
      tensor {
        dtype: DT_INT32
        tensor_shape {
          dim {
            size: 2
          }
        }
        tensor_content: "\001\000\000\000\001\000\000\000"
      }
    }
  }
}
node {
  name: "OptimizeLoss/gradients/mean_squared_error/num_present_grad/Reshape"
  op: "Reshape"
  input: "OptimizeLoss/gradients/mean_squared_error/Select_grad/tuple/control_dependency_1"
  input: "OptimizeLoss/gradients/mean_squared_error/num_present_grad/Reshape/shape"
  attr {
    key: "T"
    value {
      type: DT_FLOAT
    }
  }
  attr {
    key: "Tshape"
    value {
      type: DT_INT32
    }
  }
  attr {
    key: "_output_shapes"
    value {
      list {
        shape {
          dim {
            size: 1
          }
          dim {
            size: 1
          }
        }
      }
    }
  }
}
node {
  name: "OptimizeLoss/gradients/mean_squared_error/num_present_grad/Shape"
  op: "Shape"
  input: "mean_squared_error/num_present/broadcast_weights"
  attr {
    key: "T"
    value {
      type: DT_FLOAT
    }
  }
  attr {
    key: "_output_shapes"
    value {
      list {
        shape {
          dim {
            size: 2
          }
        }
      }
    }
  }
  attr {
    key: "out_type"
    value {
      type: DT_INT32
    }
  }
}
node {
  name: "OptimizeLoss/gradients/mean_squared_error/num_present_grad/Tile"
  op: "Tile"
  input: "OptimizeLoss/gradients/mean_squared_error/num_present_grad/Reshape"
  input: "OptimizeLoss/gradients/mean_squared_error/num_present_grad/Shape"
  attr {
    key: "T"
    value {
      type: DT_FLOAT
    }
  }
  attr {
    key: "Tmultiples"
    value {
      type: DT_INT32
    }
  }
  attr {
    key: "_output_shapes"
    value {
      list {
        shape {
          dim {
            size: -1
          }
          dim {
            size: 1
          }
        }
      }
    }
  }
}
node {
  name: "OptimizeLoss/gradients/mean_squared_error/num_present/broadcast_weights_grad/Shape"
  op: "Const"
  attr {
    key: "_output_shapes"
    value {
      list {
        shape {
          dim {
          }
        }
      }
    }
  }
  attr {
    key: "dtype"
    value {
      type: DT_INT32
    }
  }
  attr {
    key: "value"
    value {
      tensor {
        dtype: DT_INT32
        tensor_shape {
          dim {
          }
        }
      }
    }
  }
}
node {
  name: "OptimizeLoss/gradients/mean_squared_error/num_present/broadcast_weights_grad/Shape_1"
  op: "Shape"
  input: "mean_squared_error/num_present/broadcast_weights/ones_like"
  attr {
    key: "T"
    value {
      type: DT_FLOAT
    }
  }
  attr {
    key: "_output_shapes"
    value {
      list {
        shape {
          dim {
            size: 2
          }
        }
      }
    }
  }
  attr {
    key: "out_type"
    value {
      type: DT_INT32
    }
  }
}
node {
  name: "OptimizeLoss/gradients/mean_squared_error/num_present/broadcast_weights_grad/BroadcastGradientArgs"
  op: "BroadcastGradientArgs"
  input: "OptimizeLoss/gradients/mean_squared_error/num_present/broadcast_weights_grad/Shape"
  input: "OptimizeLoss/gradients/mean_squared_error/num_present/broadcast_weights_grad/Shape_1"
  attr {
    key: "T"
    value {
      type: DT_INT32
    }
  }
  attr {
    key: "_output_shapes"
    value {
      list {
        shape {
          dim {
            size: -1
          }
        }
        shape {
          dim {
            size: -1
          }
        }
      }
    }
  }
}
node {
  name: "OptimizeLoss/gradients/mean_squared_error/num_present/broadcast_weights_grad/mul"
  op: "Mul"
  input: "OptimizeLoss/gradients/mean_squared_error/num_present_grad/Tile"
  input: "mean_squared_error/num_present/broadcast_weights/ones_like"
  attr {
    key: "T"
    value {
      type: DT_FLOAT
    }
  }
  attr {
    key: "_output_shapes"
    value {
      list {
        shape {
          dim {
            size: -1
          }
          dim {
            size: 1
          }
        }
      }
    }
  }
}
node {
  name: "OptimizeLoss/gradients/mean_squared_error/num_present/broadcast_weights_grad/Sum"
  op: "Sum"
  input: "OptimizeLoss/gradients/mean_squared_error/num_present/broadcast_weights_grad/mul"
  input: "OptimizeLoss/gradients/mean_squared_error/num_present/broadcast_weights_grad/BroadcastGradientArgs"
  attr {
    key: "T"
    value {
      type: DT_FLOAT
    }
  }
  attr {
    key: "Tidx"
    value {
      type: DT_INT32
    }
  }
  attr {
    key: "_output_shapes"
    value {
      list {
        shape {
          unknown_rank: true
        }
      }
    }
  }
  attr {
    key: "keep_dims"
    value {
      b: false
    }
  }
}
node {
  name: "OptimizeLoss/gradients/mean_squared_error/num_present/broadcast_weights_grad/Reshape"
  op: "Reshape"
  input: "OptimizeLoss/gradients/mean_squared_error/num_present/broadcast_weights_grad/Sum"
  input: "OptimizeLoss/gradients/mean_squared_error/num_present/broadcast_weights_grad/Shape"
  attr {
    key: "T"
    value {
      type: DT_FLOAT
    }
  }
  attr {
    key: "Tshape"
    value {
      type: DT_INT32
    }
  }
  attr {
    key: "_output_shapes"
    value {
      list {
        shape {
        }
      }
    }
  }
}
node {
  name: "OptimizeLoss/gradients/mean_squared_error/num_present/broadcast_weights_grad/mul_1"
  op: "Mul"
  input: "mean_squared_error/num_present/Select"
  input: "OptimizeLoss/gradients/mean_squared_error/num_present_grad/Tile"
  attr {
    key: "T"
    value {
      type: DT_FLOAT
    }
  }
  attr {
    key: "_output_shapes"
    value {
      list {
        shape {
          dim {
            size: -1
          }
          dim {
            size: 1
          }
        }
      }
    }
  }
}
node {
  name: "OptimizeLoss/gradients/mean_squared_error/num_present/broadcast_weights_grad/Sum_1"
  op: "Sum"
  input: "OptimizeLoss/gradients/mean_squared_error/num_present/broadcast_weights_grad/mul_1"
  input: "OptimizeLoss/gradients/mean_squared_error/num_present/broadcast_weights_grad/BroadcastGradientArgs:1"
  attr {
    key: "T"
    value {
      type: DT_FLOAT
    }
  }
  attr {
    key: "Tidx"
    value {
      type: DT_INT32
    }
  }
  attr {
    key: "_output_shapes"
    value {
      list {
        shape {
          unknown_rank: true
        }
      }
    }
  }
  attr {
    key: "keep_dims"
    value {
      b: false
    }
  }
}
node {
  name: "OptimizeLoss/gradients/mean_squared_error/num_present/broadcast_weights_grad/Reshape_1"
  op: "Reshape"
  input: "OptimizeLoss/gradients/mean_squared_error/num_present/broadcast_weights_grad/Sum_1"
  input: "OptimizeLoss/gradients/mean_squared_error/num_present/broadcast_weights_grad/Shape_1"
  attr {
    key: "T"
    value {
      type: DT_FLOAT
    }
  }
  attr {
    key: "Tshape"
    value {
      type: DT_INT32
    }
  }
  attr {
    key: "_output_shapes"
    value {
      list {
        shape {
          dim {
            size: -1
          }
          dim {
            size: 1
          }
        }
      }
    }
  }
}
node {
  name: "OptimizeLoss/gradients/mean_squared_error/num_present/broadcast_weights_grad/tuple/group_deps"
  op: "NoOp"
  input: "^OptimizeLoss/gradients/mean_squared_error/num_present/broadcast_weights_grad/Reshape"
  input: "^OptimizeLoss/gradients/mean_squared_error/num_present/broadcast_weights_grad/Reshape_1"
}
node {
  name: "OptimizeLoss/gradients/mean_squared_error/num_present/broadcast_weights_grad/tuple/control_dependency"
  op: "Identity"
  input: "OptimizeLoss/gradients/mean_squared_error/num_present/broadcast_weights_grad/Reshape"
  input: "^OptimizeLoss/gradients/mean_squared_error/num_present/broadcast_weights_grad/tuple/group_deps"
  attr {
    key: "T"
    value {
      type: DT_FLOAT
    }
  }
  attr {
    key: "_class"
    value {
      list {
        s: "loc:@OptimizeLoss/gradients/mean_squared_error/num_present/broadcast_weights_grad/Reshape"
      }
    }
  }
  attr {
    key: "_output_shapes"
    value {
      list {
        shape {
        }
      }
    }
  }
}
node {
  name: "OptimizeLoss/gradients/mean_squared_error/num_present/broadcast_weights_grad/tuple/control_dependency_1"
  op: "Identity"
  input: "OptimizeLoss/gradients/mean_squared_error/num_present/broadcast_weights_grad/Reshape_1"
  input: "^OptimizeLoss/gradients/mean_squared_error/num_present/broadcast_weights_grad/tuple/group_deps"
  attr {
    key: "T"
    value {
      type: DT_FLOAT
    }
  }
  attr {
    key: "_class"
    value {
      list {
        s: "loc:@OptimizeLoss/gradients/mean_squared_error/num_present/broadcast_weights_grad/Reshape_1"
      }
    }
  }
  attr {
    key: "_output_shapes"
    value {
      list {
        shape {
          dim {
            size: -1
          }
          dim {
            size: 1
          }
        }
      }
    }
  }
}
node {
  name: "OptimizeLoss/gradients/mean_squared_error/num_present/broadcast_weights/ones_like_grad/Const"
  op: "Const"
  attr {
    key: "_output_shapes"
    value {
      list {
        shape {
          dim {
            size: 2
          }
        }
      }
    }
  }
  attr {
    key: "dtype"
    value {
      type: DT_INT32
    }
  }
  attr {
    key: "value"
    value {
      tensor {
        dtype: DT_INT32
        tensor_shape {
          dim {
            size: 2
          }
        }
        tensor_content: "\000\000\000\000\001\000\000\000"
      }
    }
  }
}
node {
  name: "OptimizeLoss/gradients/mean_squared_error/num_present/broadcast_weights/ones_like_grad/Sum"
  op: "Sum"
  input: "OptimizeLoss/gradients/mean_squared_error/num_present/broadcast_weights_grad/tuple/control_dependency_1"
  input: "OptimizeLoss/gradients/mean_squared_error/num_present/broadcast_weights/ones_like_grad/Const"
  attr {
    key: "T"
    value {
      type: DT_FLOAT
    }
  }
  attr {
    key: "Tidx"
    value {
      type: DT_INT32
    }
  }
  attr {
    key: "_output_shapes"
    value {
      list {
        shape {
        }
      }
    }
  }
  attr {
    key: "keep_dims"
    value {
      b: false
    }
  }
}
node {
  name: "OptimizeLoss/gradients/mean_squared_error/SquaredDifference_grad/Shape"
  op: "Shape"
  input: "dense_3/BiasAdd"
  attr {
    key: "T"
    value {
      type: DT_FLOAT
    }
  }
  attr {
    key: "_output_shapes"
    value {
      list {
        shape {
          dim {
            size: 2
          }
        }
      }
    }
  }
  attr {
    key: "out_type"
    value {
      type: DT_INT32
    }
  }
}
node {
  name: "OptimizeLoss/gradients/mean_squared_error/SquaredDifference_grad/Shape_1"
  op: "Shape"
  input: "mean_squared_error/ToFloat_1"
  attr {
    key: "T"
    value {
      type: DT_FLOAT
    }
  }
  attr {
    key: "_output_shapes"
    value {
      list {
        shape {
          dim {
            size: 2
          }
        }
      }
    }
  }
  attr {
    key: "out_type"
    value {
      type: DT_INT32
    }
  }
}
node {
  name: "OptimizeLoss/gradients/mean_squared_error/SquaredDifference_grad/BroadcastGradientArgs"
  op: "BroadcastGradientArgs"
  input: "OptimizeLoss/gradients/mean_squared_error/SquaredDifference_grad/Shape"
  input: "OptimizeLoss/gradients/mean_squared_error/SquaredDifference_grad/Shape_1"
  attr {
    key: "T"
    value {
      type: DT_INT32
    }
  }
  attr {
    key: "_output_shapes"
    value {
      list {
        shape {
          dim {
            size: -1
          }
        }
        shape {
          dim {
            size: -1
          }
        }
      }
    }
  }
}
node {
  name: "OptimizeLoss/gradients/mean_squared_error/SquaredDifference_grad/scalar"
  op: "Const"
  input: "^OptimizeLoss/gradients/mean_squared_error/Mul_grad/tuple/control_dependency"
  attr {
    key: "_output_shapes"
    value {
      list {
        shape {
        }
      }
    }
  }
  attr {
    key: "dtype"
    value {
      type: DT_FLOAT
    }
  }
  attr {
    key: "value"
    value {
      tensor {
        dtype: DT_FLOAT
        tensor_shape {
        }
        float_val: 2.0
      }
    }
  }
}
node {
  name: "OptimizeLoss/gradients/mean_squared_error/SquaredDifference_grad/mul"
  op: "Mul"
  input: "OptimizeLoss/gradients/mean_squared_error/SquaredDifference_grad/scalar"
  input: "OptimizeLoss/gradients/mean_squared_error/Mul_grad/tuple/control_dependency"
  attr {
    key: "T"
    value {
      type: DT_FLOAT
    }
  }
  attr {
    key: "_output_shapes"
    value {
      list {
        shape {
          dim {
            size: -1
          }
          dim {
            size: 1
          }
        }
      }
    }
  }
}
node {
  name: "OptimizeLoss/gradients/mean_squared_error/SquaredDifference_grad/sub"
  op: "Sub"
  input: "dense_3/BiasAdd"
  input: "mean_squared_error/ToFloat_1"
  input: "^OptimizeLoss/gradients/mean_squared_error/Mul_grad/tuple/control_dependency"
  attr {
    key: "T"
    value {
      type: DT_FLOAT
    }
  }
  attr {
    key: "_output_shapes"
    value {
      list {
        shape {
          dim {
            size: -1
          }
          dim {
            size: 1
          }
        }
      }
    }
  }
}
node {
  name: "OptimizeLoss/gradients/mean_squared_error/SquaredDifference_grad/mul_1"
  op: "Mul"
  input: "OptimizeLoss/gradients/mean_squared_error/SquaredDifference_grad/mul"
  input: "OptimizeLoss/gradients/mean_squared_error/SquaredDifference_grad/sub"
  attr {
    key: "T"
    value {
      type: DT_FLOAT
    }
  }
  attr {
    key: "_output_shapes"
    value {
      list {
        shape {
          dim {
            size: -1
          }
          dim {
            size: 1
          }
        }
      }
    }
  }
}
node {
  name: "OptimizeLoss/gradients/mean_squared_error/SquaredDifference_grad/Sum"
  op: "Sum"
  input: "OptimizeLoss/gradients/mean_squared_error/SquaredDifference_grad/mul_1"
  input: "OptimizeLoss/gradients/mean_squared_error/SquaredDifference_grad/BroadcastGradientArgs"
  attr {
    key: "T"
    value {
      type: DT_FLOAT
    }
  }
  attr {
    key: "Tidx"
    value {
      type: DT_INT32
    }
  }
  attr {
    key: "_output_shapes"
    value {
      list {
        shape {
          unknown_rank: true
        }
      }
    }
  }
  attr {
    key: "keep_dims"
    value {
      b: false
    }
  }
}
node {
  name: "OptimizeLoss/gradients/mean_squared_error/SquaredDifference_grad/Reshape"
  op: "Reshape"
  input: "OptimizeLoss/gradients/mean_squared_error/SquaredDifference_grad/Sum"
  input: "OptimizeLoss/gradients/mean_squared_error/SquaredDifference_grad/Shape"
  attr {
    key: "T"
    value {
      type: DT_FLOAT
    }
  }
  attr {
    key: "Tshape"
    value {
      type: DT_INT32
    }
  }
  attr {
    key: "_output_shapes"
    value {
      list {
        shape {
          dim {
            size: -1
          }
          dim {
            size: 1
          }
        }
      }
    }
  }
}
node {
  name: "OptimizeLoss/gradients/mean_squared_error/SquaredDifference_grad/Sum_1"
  op: "Sum"
  input: "OptimizeLoss/gradients/mean_squared_error/SquaredDifference_grad/mul_1"
  input: "OptimizeLoss/gradients/mean_squared_error/SquaredDifference_grad/BroadcastGradientArgs:1"
  attr {
    key: "T"
    value {
      type: DT_FLOAT
    }
  }
  attr {
    key: "Tidx"
    value {
      type: DT_INT32
    }
  }
  attr {
    key: "_output_shapes"
    value {
      list {
        shape {
          unknown_rank: true
        }
      }
    }
  }
  attr {
    key: "keep_dims"
    value {
      b: false
    }
  }
}
node {
  name: "OptimizeLoss/gradients/mean_squared_error/SquaredDifference_grad/Reshape_1"
  op: "Reshape"
  input: "OptimizeLoss/gradients/mean_squared_error/SquaredDifference_grad/Sum_1"
  input: "OptimizeLoss/gradients/mean_squared_error/SquaredDifference_grad/Shape_1"
  attr {
    key: "T"
    value {
      type: DT_FLOAT
    }
  }
  attr {
    key: "Tshape"
    value {
      type: DT_INT32
    }
  }
  attr {
    key: "_output_shapes"
    value {
      list {
        shape {
          dim {
            size: -1
          }
          dim {
            size: 1
          }
        }
      }
    }
  }
}
node {
  name: "OptimizeLoss/gradients/mean_squared_error/SquaredDifference_grad/Neg"
  op: "Neg"
  input: "OptimizeLoss/gradients/mean_squared_error/SquaredDifference_grad/Reshape_1"
  attr {
    key: "T"
    value {
      type: DT_FLOAT
    }
  }
  attr {
    key: "_output_shapes"
    value {
      list {
        shape {
          dim {
            size: -1
          }
          dim {
            size: 1
          }
        }
      }
    }
  }
}
node {
  name: "OptimizeLoss/gradients/mean_squared_error/SquaredDifference_grad/tuple/group_deps"
  op: "NoOp"
  input: "^OptimizeLoss/gradients/mean_squared_error/SquaredDifference_grad/Reshape"
  input: "^OptimizeLoss/gradients/mean_squared_error/SquaredDifference_grad/Neg"
}
node {
  name: "OptimizeLoss/gradients/mean_squared_error/SquaredDifference_grad/tuple/control_dependency"
  op: "Identity"
  input: "OptimizeLoss/gradients/mean_squared_error/SquaredDifference_grad/Reshape"
  input: "^OptimizeLoss/gradients/mean_squared_error/SquaredDifference_grad/tuple/group_deps"
  attr {
…
    }
  }
  attr {
    key: "end_mask"
    value {
      i: 0
    }
  }
  attr {
    key: "new_axis_mask"
    value {
      i: 0
    }
  }
  attr {
    key: "shrink_axis_mask"
    value {
      i: 0
    }
  }
}
node {
  name: "report_uninitialized_variables/boolean_mask/Prod/reduction_indices"
  op: "Const"
  device: "/device:CPU:0"
  attr {
    key: "_output_shapes"
    value {
      list {
        shape {
          dim {
            size: 1
          }
        }
      }
    }
  }
  attr {
    key: "dtype"
    value {
      type: DT_INT32
    }
  }
  attr {
    key: "value"
    value {
      tensor {
        dtype: DT_INT32
        tensor_shape {
          dim {
            size: 1
          }
        }
        int_val: 0
      }
    }
  }
}
node {
  name: "report_uninitialized_variables/boolean_mask/Prod"
  op: "Prod"
  input: "report_uninitialized_variables/boolean_mask/strided_slice"
  input: "report_uninitialized_variables/boolean_mask/Prod/reduction_indices"
  device: "/device:CPU:0"
  attr {
    key: "T"
    value {
      type: DT_INT32
    }
  }
  attr {
    key: "Tidx"
    value {
      type: DT_INT32
    }
  }
  attr {
    key: "_output_shapes"
    value {
      list {
        shape {
        }
      }
    }
  }
  attr {
    key: "keep_dims"
    value {
      b: false
    }
  }
}
node {
  name: "report_uninitialized_variables/boolean_mask/Shape_1"
  op: "Const"
  device: "/device:CPU:0"
  attr {
    key: "_output_shapes"
    value {
      list {
        shape {
          dim {
            size: 1
          }
        }
      }
    }
  }
  attr {
    key: "dtype"
    value {
      type: DT_INT32
    }
  }
  attr {
    key: "value"
    value {
      tensor {
        dtype: DT_INT32
        tensor_shape {
          dim {
            size: 1
          }
        }
        int_val: 8
      }
    }
  }
}
node {
  name: "report_uninitialized_variables/boolean_mask/strided_slice_1/stack"
  op: "Const"
  device: "/device:CPU:0"
  attr {
    key: "_output_shapes"
    value {
      list {
        shape {
          dim {
            size: 1
          }
        }
      }
    }
  }
  attr {
    key: "dtype"
    value {
      type: DT_INT32
    }
  }
  attr {
    key: "value"
    value {
      tensor {
        dtype: DT_INT32
        tensor_shape {
          dim {
            size: 1
          }
        }
        int_val: 1
      }
    }
  }
}
node {
  name: "report_uninitialized_variables/boolean_mask/strided_slice_1/stack_1"
  op: "Const"
  device: "/device:CPU:0"
  attr {
    key: "_output_shapes"
    value {
      list {
        shape {
          dim {
            size: 1
          }
        }
      }
    }
  }
  attr {
    key: "dtype"
    value {
      type: DT_INT32
    }
  }
  attr {
    key: "value"
    value {
      tensor {
        dtype: DT_INT32
        tensor_shape {
          dim {
            size: 1
          }
        }
        int_val: 0
      }
    }
  }
}
node {
  name: "report_uninitialized_variables/boolean_mask/strided_slice_1/stack_2"
  op: "Const"
  device: "/device:CPU:0"
  attr {
    key: "_output_shapes"
    value {
      list {
        shape {
          dim {
            size: 1
          }
        }
      }
    }
  }
  attr {
    key: "dtype"
    value {
      type: DT_INT32
    }
  }
  attr {
    key: "value"
    value {
      tensor {
        dtype: DT_INT32
        tensor_shape {
          dim {
            size: 1
          }
        }
        int_val: 1
      }
    }
  }
}
node {
  name: "report_uninitialized_variables/boolean_mask/strided_slice_1"
  op: "StridedSlice"
  input: "report_uninitialized_variables/boolean_mask/Shape_1"
  input: "report_uninitialized_variables/boolean_mask/strided_slice_1/stack"
  input: "report_uninitialized_variables/boolean_mask/strided_slice_1/stack_1"
  input: "report_uninitialized_variables/boolean_mask/strided_slice_1/stack_2"
  device: "/device:CPU:0"
  attr {
    key: "Index"
    value {
      type: DT_INT32
    }
  }
  attr {
    key: "T"
    value {
      type: DT_INT32
    }
  }
  attr {
    key: "_output_shapes"
    value {
      list {
        shape {
          dim {
          }
        }
      }
    }
  }
  attr {
    key: "begin_mask"
    value {
      i: 0
    }
  }
  attr {
    key: "ellipsis_mask"
    value {
      i: 0
    }
  }
  attr {
    key: "end_mask"
    value {
      i: 1
    }
  }
  attr {
    key: "new_axis_mask"
    value {
      i: 0
    }
  }
  attr {
    key: "shrink_axis_mask"
    value {
      i: 0
    }
  }
}
node {
  name: "report_uninitialized_variables/boolean_mask/concat/values_0"
  op: "Pack"
  input: "report_uninitialized_variables/boolean_mask/Prod"
  device: "/device:CPU:0"
  attr {
    key: "N"
    value {
      i: 1
    }
  }
  attr {
    key: "T"
    value {
      type: DT_INT32
    }
  }
  attr {
    key: "_output_shapes"
    value {
      list {
        shape {
          dim {
            size: 1
          }
        }
      }
    }
  }
  attr {
    key: "axis"
    value {
      i: 0
    }
  }
}
node {
  name: "report_uninitialized_variables/boolean_mask/concat/axis"
  op: "Const"
  device: "/device:CPU:0"
  attr {
    key: "_output_shapes"
    value {
      list {
        shape {
        }
      }
    }
  }
  attr {
    key: "dtype"
    value {
      type: DT_INT32
    }
  }
  attr {
    key: "value"
    value {
      tensor {
        dtype: DT_INT32
        tensor_shape {
        }
        int_val: 0
      }
    }
  }
}
node {
  name: "report_uninitialized_variables/boolean_mask/concat"
  op: "ConcatV2"
  input: "report_uninitialized_variables/boolean_mask/concat/values_0"
  input: "report_uninitialized_variables/boolean_mask/strided_slice_1"
  input: "report_uninitialized_variables/boolean_mask/concat/axis"
  device: "/device:CPU:0"
  attr {
    key: "N"
    value {
      i: 2
    }
  }
  attr {
    key: "T"
    value {
      type: DT_INT32
    }
  }
  attr {
    key: "Tidx"
    value {
      type: DT_INT32
    }
  }
  attr {
    key: "_output_shapes"
    value {
      list {
        shape {
          dim {
            size: 1
          }
        }
      }
    }
  }
}
node {
  name: "report_uninitialized_variables/boolean_mask/Reshape"
  op: "Reshape"
  input: "report_uninitialized_variables/Const"
  input: "report_uninitialized_variables/boolean_mask/concat"
  device: "/device:CPU:0"
  attr {
    key: "T"
    value {
      type: DT_STRING
    }
  }
  attr {
    key: "Tshape"
    value {
      type: DT_INT32
    }
  }
  attr {
    key: "_output_shapes"
    value {
      list {
        shape {
          dim {
            size: 8
          }
        }
      }
    }
  }
}
node {
  name: "report_uninitialized_variables/boolean_mask/Reshape_1/shape"
  op: "Const"
  device: "/device:CPU:0"
  attr {
    key: "_output_shapes"
    value {
      list {
        shape {
          dim {
            size: 1
          }
        }
      }
    }
  }
  attr {
    key: "dtype"
    value {
      type: DT_INT32
    }
  }
  attr {
    key: "value"
    value {
      tensor {
        dtype: DT_INT32
        tensor_shape {
          dim {
            size: 1
          }
        }
        int_val: -1
      }
    }
  }
}
node {
  name: "report_uninitialized_variables/boolean_mask/Reshape_1"
  op: "Reshape"
  input: "report_uninitialized_variables/LogicalNot"
  input: "report_uninitialized_variables/boolean_mask/Reshape_1/shape"
  device: "/device:CPU:0"
  attr {
    key: "T"
    value {
      type: DT_BOOL
    }
  }
  attr {
    key: "Tshape"
    value {
      type: DT_INT32
    }
  }
  attr {
    key: "_output_shapes"
    value {
      list {
        shape {
          dim {
            size: 8
          }
        }
      }
    }
  }
}
node {
  name: "report_uninitialized_variables/boolean_mask/Where"
  op: "Where"
  input: "report_uninitialized_variables/boolean_mask/Reshape_1"
  device: "/device:CPU:0"
  attr {
    key: "_output_shapes"
    value {
      list {
        shape {
          dim {
            size: -1
          }
          dim {
            size: 1
          }
        }
      }
    }
  }
}
node {
  name: "report_uninitialized_variables/boolean_mask/Squeeze"
  op: "Squeeze"
  input: "report_uninitialized_variables/boolean_mask/Where"
  device: "/device:CPU:0"
  attr {
    key: "T"
    value {
      type: DT_INT64
    }
  }
  attr {
    key: "_output_shapes"
    value {
      list {
        shape {
          dim {
            size: -1
          }
        }
      }
    }
  }
  attr {
    key: "squeeze_dims"
    value {
      list {
        i: 1
      }
    }
  }
}
node {
  name: "report_uninitialized_variables/boolean_mask/Gather"
  op: "Gather"
  input: "report_uninitialized_variables/boolean_mask/Reshape"
  input: "report_uninitialized_variables/boolean_mask/Squeeze"
  device: "/device:CPU:0"
  attr {
    key: "Tindices"
    value {
      type: DT_INT64
    }
  }
  attr {
    key: "Tparams"
    value {
      type: DT_STRING
    }
  }
  attr {
    key: "_output_shapes"
    value {
      list {
        shape {
          dim {
            size: -1
          }
        }
      }
    }
  }
  attr {
    key: "validate_indices"
    value {
      b: true
    }
  }
}
node {
  name: "report_uninitialized_resources/Const"
  op: "Const"
  device: "/device:CPU:0"
  attr {
    key: "_output_shapes"
    value {
      list {
        shape {
          dim {
          }
        }
      }
    }
  }
  attr {
    key: "dtype"
    value {
      type: DT_STRING
    }
  }
  attr {
    key: "value"
    value {
      tensor {
        dtype: DT_STRING
        tensor_shape {
          dim {
          }
        }
      }
    }
  }
}
node {
  name: "concat/axis"
  op: "Const"
  attr {
    key: "_output_shapes"
    value {
      list {
        shape {
        }
      }
    }
  }
  attr {
    key: "dtype"
    value {
      type: DT_INT32
    }
  }
  attr {
    key: "value"
    value {
      tensor {
        dtype: DT_INT32
        tensor_shape {
        }
        int_val: 0
      }
    }
  }
}
node {
  name: "concat"
  op: "ConcatV2"
  input: "report_uninitialized_variables/boolean_mask/Gather"
  input: "report_uninitialized_resources/Const"
  input: "concat/axis"
  attr {
    key: "N"
    value {
      i: 2
    }
  }
  attr {
    key: "T"
    value {
      type: DT_STRING
    }
  }
  attr {
    key: "Tidx"
    value {
      type: DT_INT32
    }
  }
  attr {
    key: "_output_shapes"
    value {
      list {
        shape {
          dim {
            size: -1
          }
        }
      }
    }
  }
}
node {
  name: "report_uninitialized_variables_1/IsVariableInitialized"
  op: "IsVariableInitialized"
  input: "global_step"
  attr {
    key: "_class"
    value {
      list {
        s: "loc:@global_step"
      }
    }
  }
  attr {
    key: "_output_shapes"
    value {
      list {
        shape {
        }
      }
    }
  }
  attr {
    key: "dtype"
    value {
      type: DT_INT64
    }
  }
}
node {
  name: "report_uninitialized_variables_1/IsVariableInitialized_1"
  op: "IsVariableInitialized"
  input: "dense/kernel"
  attr {
    key: "_class"
    value {
      list {
        s: "loc:@dense/kernel"
      }
    }
  }
  attr {
    key: "_output_shapes"
    value {
      list {
        shape {
        }
      }
    }
  }
  attr {
    key: "dtype"
    value {
      type: DT_FLOAT
    }
  }
}
node {
  name: "report_uninitialized_variables_1/IsVariableInitialized_2"
  op: "IsVariableInitialized"
  input: "dense/bias"
  attr {
    key: "_class"
    value {
      list {
        s: "loc:@dense/bias"
      }
    }
  }
  attr {
    key: "_output_shapes"
    value {
      list {
        shape {
        }
      }
    }
  }
  attr {
    key: "dtype"
    value {
      type: DT_FLOAT
    }
  }
}
node {
  name: "report_uninitialized_variables_1/IsVariableInitialized_3"
  op: "IsVariableInitialized"
  input: "dense_1/kernel"
  attr {
    key: "_class"
    value {
      list {
        s: "loc:@dense_1/kernel"
      }
    }
  }
  attr {
    key: "_output_shapes"
    value {
      list {
        shape {
        }
      }
    }
  }
  attr {
    key: "dtype"
    value {
      type: DT_FLOAT
    }
  }
}
node {
  name: "report_uninitialized_variables_1/IsVariableInitialized_4"
  op: "IsVariableInitialized"
  input: "dense_1/bias"
  attr {
    key: "_class"
    value {
      list {
        s: "loc:@dense_1/bias"
      }
    }
  }
  attr {
    key: "_output_shapes"
    value {
      list {
        shape {
        }
      }
    }
  }
  attr {
    key: "dtype"
    value {
      type: DT_FLOAT
    }
  }
}
node {
  name: "report_uninitialized_variables_1/IsVariableInitialized_5"
  op: "IsVariableInitialized"
  input: "dense_2/kernel"
  attr {
    key: "_class"
    value {
      list {
        s: "loc:@dense_2/kernel"
      }
    }
  }
  attr {
    key: "_output_shapes"
    value {
      list {
        shape {
        }
      }
    }
  }
  attr {
    key: "dtype"
    value {
      type: DT_FLOAT
    }
  }
}
node {
  name: "report_uninitialized_variables_1/IsVariableInitialized_6"
  op: "IsVariableInitialized"
  input: "dense_2/bias"
  attr {
    key: "_class"
    value {
      list {
        s: "loc:@dense_2/bias"
      }
    }
  }
  attr {
    key: "_output_shapes"
    value {
      list {
        shape {
        }
      }
    }
  }
  attr {
    key: "dtype"
    value {
      type: DT_FLOAT
    }
  }
}
node {
  name: "report_uninitialized_variables_1/IsVariableInitialized_7"
  op: "IsVariableInitialized"
  input: "OptimizeLoss/learning_rate"
  attr {
    key: "_class"
    value {
      list {
        s: "loc:@OptimizeLoss/learning_rate"
      }
    }
  }
  attr {
    key: "_output_shapes"
    value {
      list {
        shape {
        }
      }
    }
  }
  attr {
    key: "dtype"
    value {
      type: DT_FLOAT
    }
  }
}
node {
  name: "report_uninitialized_variables_1/stack"
  op: "Pack"
  input: "report_uninitialized_variables_1/IsVariableInitialized"
  input: "report_uninitialized_variables_1/IsVariableInitialized_1"
  input: "report_uninitialized_variables_1/IsVariableInitialized_2"
  input: "report_uninitialized_variables_1/IsVariableInitialized_3"
  input: "report_uninitialized_variables_1/IsVariableInitialized_4"
  input: "report_uninitialized_variables_1/IsVariableInitialized_5"
  input: "report_uninitialized_variables_1/IsVariableInitialized_6"
  input: "report_uninitialized_variables_1/IsVariableInitialized_7"
  device: "/device:CPU:0"
  attr {
    key: "N"
    value {
      i: 8
    }
  }
  attr {
    key: "T"
    value {
      type: DT_BOOL
    }
  }
  attr {
    key: "_output_shapes"
    value {
      list {
        shape {
          dim {
            size: 8
          }
        }
      }
    }
  }
  attr {
    key: "axis"
    value {
      i: 0
    }
  }
}
node {
  name: "report_uninitialized_variables_1/LogicalNot"
  op: "LogicalNot"
  input: "report_uninitialized_variables_1/stack"
  device: "/device:CPU:0"
  attr {
    key: "_output_shapes"
    value {
      list {
        shape {
          dim {
            size: 8
          }
        }
      }
    }
  }
}
node {
  name: "report_uninitialized_variables_1/Const"
  op: "Const"
  device: "/device:CPU:0"
  attr {
    key: "_output_shapes"
    value {
      list {
        shape {
          dim {
            size: 8
          }
        }
      }
    }
  }
  attr {
    key: "dtype"
    value {
      type: DT_STRING
    }
  }
  attr {
    key: "value"
    value {
      tensor {
        dtype: DT_STRING
        tensor_shape {
          dim {
            size: 8
          }
        }
        string_val: "global_step"
        string_val: "dense/kernel"
        string_val: "dense/bias"
        string_val: "dense_1/kernel"
        string_val: "dense_1/bias"
        string_val: "dense_2/kernel"
        string_val: "dense_2/bias"
        string_val: "OptimizeLoss/learning_rate"
      }
    }
  }
}
node {
  name: "report_uninitialized_variables_1/boolean_mask/Shape"
  op: "Const"
  device: "/device:CPU:0"
  attr {
    key: "_output_shapes"
    value {
      list {
        shape {
          dim {
            size: 1
          }
        }
      }
    }
  }
  attr {
    key: "dtype"
    value {
      type: DT_INT32
    }
  }
  attr {
    key: "value"
    value {
      tensor {
        dtype: DT_INT32
        tensor_shape {
          dim {
            size: 1
          }
        }
        int_val: 8
      }
    }
  }
}
node {
  name: "report_uninitialized_variables_1/boolean_mask/strided_slice/stack"
  op: "Const"
  device: "/device:CPU:0"
  attr {
    key: "_output_shapes"
    value {
      list {
        shape {
          dim {
            size: 1
          }
        }
      }
    }
  }
  attr {
    key: "dtype"
    value {
      type: DT_INT32
    }
  }
  attr {
    key: "value"
    value {
      tensor {
        dtype: DT_INT32
        tensor_shape {
          dim {
            size: 1
          }
        }
        int_val: 0
      }
    }
  }
}
node {
  name: "report_uninitialized_variables_1/boolean_mask/strided_slice/stack_1"
  op: "Const"
  device: "/device:CPU:0"
  attr {
    key: "_output_shapes"
    value {
      list {
        shape {
          dim {
            size: 1
          }
        }
      }
    }
  }
  attr {
    key: "dtype"
    value {
      type: DT_INT32
    }
  }
  attr {
    key: "value"
    value {
      tensor {
        dtype: DT_INT32
        tensor_shape {
          dim {
            size: 1
          }
        }
        int_val: 1
      }
    }
  }
}
node {
  name: "report_uninitialized_variables_1/boolean_mask/strided_slice/stack_2"
  op: "Const"
  device: "/device:CPU:0"
  attr {
    key: "_output_shapes"
    value {
      list {
        shape {
          dim {
            size: 1
          }
        }
      }
    }
  }
  attr {
    key: "dtype"
    value {
      type: DT_INT32
    }
  }
  attr {
    key: "value"
    value {
      tensor {
        dtype: DT_INT32
        tensor_shape {
          dim {
            size: 1
          }
        }
        int_val: 1
      }
    }
  }
}
node {
  name: "report_uninitialized_variables_1/boolean_mask/strided_slice"
  op: "StridedSlice"
  input: "report_uninitialized_variables_1/boolean_mask/Shape"
  input: "report_uninitialized_variables_1/boolean_mask/strided_slice/stack"
  input: "report_uninitialized_variables_1/boolean_mask/strided_slice/stack_1"
  input: "report_uninitialized_variables_1/boolean_mask/strided_slice/stack_2"
  device: "/device:CPU:0"
  attr {
    key: "Index"
    value {
      type: DT_INT32
    }
  }
  attr {
    key: "T"
    value {
      type: DT_INT32
    }
  }
  attr {
    key: "_output_shapes"
    value {
      list {
        shape {
          dim {
            size: 1
          }
        }
      }
    }
  }
  attr {
    key: "begin_mask"
    value {
      i: 1
    }
  }
  attr {
    key: "ellipsis_mask"
    value {
      i: 0
    }
  }
  attr {
    key: "end_mask"
    value {
      i: 0
    }
  }
  attr {
    key: "new_axis_mask"
    value {
      i: 0
    }
  }
  attr {
    key: "shrink_axis_mask"
    value {
      i: 0
    }
  }
}
node {
  name: "report_uninitialized_variables_1/boolean_mask/Prod/reduction_indices"
  op: "Const"
  device: "/device:CPU:0"
  attr {
    key: "_output_shapes"
    value {
      list {
        shape {
          dim {
            size: 1
          }
        }
      }
    }
  }
  attr {
    key: "dtype"
    value {
      type: DT_INT32
    }
  }
  attr {
    key: "value"
    value {
      tensor {
        dtype: DT_INT32
        tensor_shape {
          dim {
            size: 1
          }
        }
        int_val: 0
      }
    }
  }
}
node {
  name: "report_uninitialized_variables_1/boolean_mask/Prod"
  op: "Prod"
  input: "report_uninitialized_variables_1/boolean_mask/strided_slice"
  input: "report_uninitialized_variables_1/boolean_mask/Prod/reduction_indices"
  device: "/device:CPU:0"
  attr {
    key: "T"
    value {
      type: DT_INT32
    }
  }
  attr {
    key: "Tidx"
    value {
      type: DT_INT32
    }
  }
  attr {
    key: "_output_shapes"
    value {
      list {
        shape {
        }
      }
    }
  }
  attr {
    key: "keep_dims"
    value {
      b: false
    }
  }
}
node {
  name: "report_uninitialized_variables_1/boolean_mask/Shape_1"
  op: "Const"
  device: "/device:CPU:0"
  attr {
    key: "_output_shapes"
    value {
      list {
        shape {
          dim {
            size: 1
          }
        }
      }
    }
  }
  attr {
    key: "dtype"
    value {
      type: DT_INT32
    }
  }
  attr {
    key: "value"
    value {
      tensor {
        dtype: DT_INT32
        tensor_shape {
          dim {
            size: 1
          }
        }
        int_val: 8
      }
    }
  }
}
node {
  name: "report_uninitialized_variables_1/boolean_mask/strided_slice_1/stack"
  op: "Const"
  device: "/device:CPU:0"
  attr {
    key: "_output_shapes"
    value {
      list {
        shape {
          dim {
            size: 1
          }
        }
      }
    }
  }
  attr {
    key: "dtype"
    value {
      type: DT_INT32
    }
  }
  attr {
    key: "value"
    value {
      tensor {
        dtype: DT_INT32
        tensor_shape {
          dim {
            size: 1
          }
        }
        int_val: 1
      }
    }
  }
}
node {
  name: "report_uninitialized_variables_1/boolean_mask/strided_slice_1/stack_1"
  op: "Const"
  device: "/device:CPU:0"
  attr {
    key: "_output_shapes"
    value {
      list {
        shape {
          dim {
            size: 1
          }
        }
      }
    }
  }
  attr {
    key: "dtype"
    value {
      type: DT_INT32
    }
  }
  attr {
    key: "value"
    value {
      tensor {
        dtype: DT_INT32
        tensor_shape {
          dim {
            size: 1
          }
        }
        int_val: 0
      }
    }
  }
}
node {
  name: "report_uninitialized_variables_1/boolean_mask/strided_slice_1/stack_2"
  op: "Const"
  device: "/device:CPU:0"
  attr {
    key: "_output_shapes"
    value {
      list {
        shape {
          dim {
            size: 1
          }
        }
      }
    }
  }
  attr {
    key: "dtype"
    value {
      type: DT_INT32
    }
  }
  attr {
    key: "value"
    value {
      tensor {
        dtype: DT_INT32
        tensor_shape {
          dim {
            size: 1
          }
        }
        int_val: 1
      }
    }
  }
}
node {
  name: "report_uninitialized_variables_1/boolean_mask/strided_slice_1"
  op: "StridedSlice"
  input: "report_uninitialized_variables_1/boolean_mask/Shape_1"
  input: "report_uninitialized_variables_1/boolean_mask/strided_slice_1/stack"
  input: "report_uninitialized_variables_1/boolean_mask/strided_slice_1/stack_1"
  input: "report_uninitialized_variables_1/boolean_mask/strided_slice_1/stack_2"
  device: "/device:CPU:0"
  attr {
    key: "Index"
    value {
      type: DT_INT32
    }
  }
  attr {
    key: "T"
    value {
      type: DT_INT32
    }
  }
  attr {
    key: "_output_shapes"
    value {
      list {
        shape {
          dim {
          }
        }
      }
    }
  }
  attr {
    key: "begin_mask"
    value {
      i: 0
    }
  }
  attr {
    key: "ellipsis_mask"
    value {
      i: 0
    }
  }
  attr {
    key: "end_mask"
    value {
      i: 1
    }
  }
  attr {
    key: "new_axis_mask"
    value {
      i: 0
    }
  }
  attr {
    key: "shrink_axis_mask"
    value {
      i: 0
    }
  }
}
node {
  name: "report_uninitialized_variables_1/boolean_mask/concat/values_0"
  op: "Pack"
  input: "report_uninitialized_variables_1/boolean_mask/Prod"
  device: "/device:CPU:0"
  attr {
    key: "N"
    value {
      i: 1
    }
  }
  attr {
    key: "T"
    value {
      type: DT_INT32
    }
  }
  attr {
    key: "_output_shapes"
    value {
      list {
        shape {
          dim {
            size: 1
          }
        }
      }
    }
  }
  attr {
    key: "axis"
    value {
      i: 0
    }
  }
}
node {
  name: "report_uninitialized_variables_1/boolean_mask/concat/axis"
  op: "Const"
  device: "/device:CPU:0"
  attr {
    key: "_output_shapes"
    value {
      list {
        shape {
        }
      }
    }
  }
  attr {
    key: "dtype"
    value {
      type: DT_INT32
    }
  }
  attr {
    key: "value"
    value {
      tensor {
        dtype: DT_INT32
        tensor_shape {
        }
        int_val: 0
      }
    }
  }
}
node {
  name: "report_uninitialized_variables_1/boolean_mask/concat"
  op: "ConcatV2"
  input: "report_uninitialized_variables_1/boolean_mask/concat/values_0"
  input: "report_uninitialized_variables_1/boolean_mask/strided_slice_1"
  input: "report_uninitialized_variables_1/boolean_mask/concat/axis"
  device: "/device:CPU:0"
  attr {
    key: "N"
    value {
      i: 2
    }
  }
  attr {
    key: "T"
    value {
      type: DT_INT32
    }
  }
  attr {
    key: "Tidx"
    value {
      type: DT_INT32
    }
  }
  attr {
    key: "_output_shapes"
    value {
      list {
        shape {
          dim {
            size: 1
          }
        }
      }
    }
  }
}
node {
  name: "report_uninitialized_variables_1/boolean_mask/Reshape"
  op: "Reshape"
  input: "report_uninitialized_variables_1/Const"
  input: "report_uninitialized_variables_1/boolean_mask/concat"
  device: "/device:CPU:0"
  attr {
    key: "T"
    value {
      type: DT_STRING
    }
  }
  attr {
    key: "Tshape"
    value {
      type: DT_INT32
    }
  }
  attr {
    key: "_output_shapes"
    value {
      list {
        shape {
          dim {
            size: 8
          }
        }
      }
    }
  }
}
node {
  name: "report_uninitialized_variables_1/boolean_mask/Reshape_1/shape"
  op: "Const"
  device: "/device:CPU:0"
  attr {
    key: "_output_shapes"
    value {
      list {
        shape {
          dim {
            size: 1
          }
        }
      }
    }
  }
  attr {
    key: "dtype"
    value {
      type: DT_INT32
    }
  }
  attr {
    key: "value"
    value {
      tensor {
        dtype: DT_INT32
        tensor_shape {
          dim {
            size: 1
          }
        }
        int_val: -1
      }
    }
  }
}
node {
  name: "report_uninitialized_variables_1/boolean_mask/Reshape_1"
  op: "Reshape"
  input: "report_uninitialized_variables_1/LogicalNot"
  input: "report_uninitialized_variables_1/boolean_mask/Reshape_1/shape"
  device: "/device:CPU:0"
  attr {
    key: "T"
    value {
      type: DT_BOOL
    }
  }
  attr {
    key: "Tshape"
    value {
      type: DT_INT32
    }
  }
  attr {
    key: "_output_shapes"
    value {
      list {
        shape {
          dim {
            size: 8
          }
        }
      }
    }
  }
}
node {
  name: "report_uninitialized_variables_1/boolean_mask/Where"
  op: "Where"
  input: "report_uninitialized_variables_1/boolean_mask/Reshape_1"
  device: "/device:CPU:0"
  attr {
    key: "_output_shapes"
    value {
      list {
        shape {
          dim {
            size: -1
          }
          dim {
            size: 1
          }
        }
      }
    }
  }
}
node {
  name: "report_uninitialized_variables_1/boolean_mask/Squeeze"
  op: "Squeeze"
  input: "report_uninitialized_variables_1/boolean_mask/Where"
  device: "/device:CPU:0"
  attr {
    key: "T"
    value {
      type: DT_INT64
    }
  }
  attr {
    key: "_output_shapes"
    value {
      list {
        shape {
          dim {
            size: -1
          }
        }
      }
    }
  }
  attr {
    key: "squeeze_dims"
    value {
      list {
        i: 1
      }
    }
  }
}
node {
  name: "report_uninitialized_variables_1/boolean_mask/Gather"
  op: "Gather"
  input: "report_uninitialized_variables_1/boolean_mask/Reshape"
  input: "report_uninitialized_variables_1/boolean_mask/Squeeze"
  device: "/device:CPU:0"
  attr {
    key: "Tindices"
    value {
      type: DT_INT64
    }
  }
  attr {
    key: "Tparams"
    value {
      type: DT_STRING
    }
  }
  attr {
    key: "_output_shapes"
    value {
      list {
        shape {
          dim {
            size: -1
          }
        }
      }
    }
  }
  attr {
    key: "validate_indices"
    value {
      b: true
    }
  }
}
node {
  name: "init_2"
  op: "NoOp"
}
node {
  name: "init_all_tables"
  op: "NoOp"
}
node {
  name: "group_deps_1"
  op: "NoOp"
  input: "^init_2"
  input: "^init_all_tables"
}
node {
  name: "Merge/MergeSummary"
  op: "MergeSummary"
  input: "input_producer/fraction_of_32_full"
  input: "shuffle_batch/fraction_over_3_of_7_full"
  input: "OptimizeLoss/global_norm/gradient_norm"
  input: "OptimizeLoss/loss"
  attr {
    key: "N"
    value {
      i: 4
    }
  }
  attr {
    key: "_output_shapes"
    value {
      list {
        shape {
        }
      }
    }
  }
}
node {
  name: "save/Const"
  op: "Const"
  attr {
    key: "_output_shapes"
    value {
      list {
        shape {
        }
      }
    }
  }
  attr {
    key: "dtype"
    value {
      type: DT_STRING
    }
  }
  attr {
    key: "value"
    value {
      tensor {
        dtype: DT_STRING
        tensor_shape {
        }
        string_val: "model"
      }
    }
  }
}
node {
  name: "save/StringJoin/inputs_1"
  op: "Const"
  attr {
    key: "_output_shapes"
    value {
      list {
        shape {
        }
      }
    }
  }
  attr {
    key: "dtype"
    value {
      type: DT_STRING
    }
  }
  attr {
    key: "value"
    value {
      tensor {
        dtype: DT_STRING
        tensor_shape {
        }
        string_val: "_temp_1541df72e7cd426da66f1c1bf578cb84/part"
      }
    }
  }
}
node {
  name: "save/StringJoin"
  op: "StringJoin"
  input: "save/Const"
  input: "save/StringJoin/inputs_1"
  attr {
    key: "N"
    value {
      i: 2
    }
  }
  attr {
    key: "_output_shapes"
    value {
      list {
        shape {
        }
      }
    }
  }
  attr {
    key: "separator"
    value {
      s: ""
    }
  }
}
node {
  name: "save/num_shards"
  op: "Const"
  attr {
    key: "_output_shapes"
    value {
      list {
        shape {
        }
      }
    }
  }
  attr {
    key: "dtype"
    value {
      type: DT_INT32
    }
  }
  attr {
    key: "value"
    value {
      tensor {
        dtype: DT_INT32
        tensor_shape {
        }
        int_val: 1
      }
    }
  }
}
node {
  name: "save/ShardedFilename/shard"
  op: "Const"
  attr {
    key: "_output_shapes"
    value {
      list {
        shape {
        }
      }
    }
  }
  attr {
    key: "dtype"
    value {
      type: DT_INT32
    }
  }
  attr {
    key: "value"
    value {
      tensor {
        dtype: DT_INT32
        tensor_shape {
        }
        int_val: 0
      }
    }
  }
}
node {
  name: "save/ShardedFilename"
  op: "ShardedFilename"
  input: "save/StringJoin"
  input: "save/ShardedFilename/shard"
  input: "save/num_shards"
  attr {
    key: "_output_shapes"
    value {
      list {
        shape {
        }
      }
    }
  }
}
node {
  name: "save/SaveV2/tensor_names"
  op: "Const"
  attr {
    key: "_output_shapes"
    value {
      list {
        shape {
          dim {
            size: 8
          }
        }
      }
    }
  }
  attr {
    key: "dtype"
    value {
      type: DT_STRING
    }
  }
  attr {
    key: "value"
    value {
      tensor {
        dtype: DT_STRING
        tensor_shape {
          dim {
            size: 8
          }
        }
        string_val: "OptimizeLoss/learning_rate"
        string_val: "dense/bias"
        string_val: "dense/kernel"
        string_val: "dense_1/bias"
        string_val: "dense_1/kernel"
        string_val: "dense_2/bias"
        string_val: "dense_2/kernel"
        string_val: "global_step"
      }
    }
  }
}
node {
  name: "save/SaveV2/shape_and_slices"
  op: "Const"
  attr {
    key: "_output_shapes"
    value {
      list {
        shape {
          dim {
            size: 8
          }
        }
      }
    }
  }
  attr {
    key: "dtype"
    value {
      type: DT_STRING
    }
  }
  attr {
    key: "value"
    value {
      tensor {
        dtype: DT_STRING
        tensor_shape {
          dim {
            size: 8
          }
        }
        string_val: ""
        string_val: ""
        string_val: ""
        string_val: ""
        string_val: ""
        string_val: ""
        string_val: ""
        string_val: ""
      }
    }
  }
}
node {
  name: "save/SaveV2"
  op: "SaveV2"
  input: "save/ShardedFilename"
  input: "save/SaveV2/tensor_names"
  input: "save/SaveV2/shape_and_slices"
  input: "OptimizeLoss/learning_rate"
  input: "dense/bias"
  input: "dense/kernel"
  input: "dense_1/bias"
  input: "dense_1/kernel"
  input: "dense_2/bias"
  input: "dense_2/kernel"
  input: "global_step"
  attr {
    key: "dtypes"
    value {
      list {
        type: DT_FLOAT
        type: DT_FLOAT
        type: DT_FLOAT
        type: DT_FLOAT
        type: DT_FLOAT
        type: DT_FLOAT
        type: DT_FLOAT
        type: DT_INT64
      }
    }
  }
}
node {
  name: "save/control_dependency"
  op: "Identity"
  input: "save/ShardedFilename"
  input: "^save/SaveV2"
  attr {
    key: "T"
    value {
      type: DT_STRING
    }
  }
  attr {
    key: "_class"
    value {
      list {
        s: "loc:@save/ShardedFilename"
      }
    }
  }
  attr {
    key: "_output_shapes"
    value {
      list {
        shape {
        }
      }
    }
  }
}
node {
  name: "save/MergeV2Checkpoints/checkpoint_prefixes"
  op: "Pack"
  input: "save/ShardedFilename"
  input: "^save/control_dependency"
  attr {
    key: "N"
    value {
      i: 1
    }
  }
  attr {
    key: "T"
    value {
      type: DT_STRING
    }
  }
  attr {
    key: "_output_shapes"
    value {
      list {
        shape {
          dim {
            size: 1
          }
        }
      }
    }
  }
  attr {
    key: "axis"
    value {
      i: 0
    }
  }
}
node {
  name: "save/MergeV2Checkpoints"
  op: "MergeV2Checkpoints"
  input: "save/MergeV2Checkpoints/checkpoint_prefixes"
  input: "save/Const"
  attr {
    key: "delete_old_dirs"
    value {
      b: true
    }
  }
}
node {
  name: "save/Identity"
  op: "Identity"
  input: "save/Const"
  input: "^save/control_dependency"
  input: "^save/MergeV2Checkpoints"
  attr {
    key: "T"
    value {
      type: DT_STRING
    }
  }
  attr {
    key: "_output_shapes"
    value {
      list {
        shape {
        }
      }
    }
  }
}
node {
  name: "save/RestoreV2/tensor_names"
  op: "Const"
  attr {
    key: "_output_shapes"
    value {
      list {
        shape {
          dim {
            size: 1
          }
        }
      }
    }
  }
  attr {
    key: "dtype"
    value {
      type: DT_STRING
    }
  }
  attr {
    key: "value"
    value {
      tensor {
        dtype: DT_STRING
        tensor_shape {
          dim {
            size: 1
          }
        }
        string_val: "OptimizeLoss/learning_rate"
      }
    }
  }
}
node {
  name: "save/RestoreV2/shape_and_slices"
  op: "Const"
  attr {
    key: "_output_shapes"
    value {
      list {
        shape {
          dim {
            size: 1
          }
        }
      }
    }
  }
  attr {
    key: "dtype"
    value {
      type: DT_STRING
    }
  }
  attr {
    key: "value"
    value {
      tensor {
        dtype: DT_STRING
        tensor_shape {
          dim {
            size: 1
          }
        }
        string_val: ""
      }
    }
  }
}
node {
  name: "save/RestoreV2"
  op: "RestoreV2"
  input: "save/Const"
  input: "save/RestoreV2/tensor_names"
  input: "save/RestoreV2/shape_and_slices"
  attr {
    key: "_output_shapes"
    value {
      list {
        shape {
          unknown_rank: true
        }
      }
    }
  }
  attr {
    key: "dtypes"
    value {
      list {
        type: DT_FLOAT
      }
    }
  }
}
node {
  name: "save/Assign"
  op: "Assign"
  input: "OptimizeLoss/learning_rate"
  input: "save/RestoreV2"
  attr {
    key: "T"
    value {
      type: DT_FLOAT
    }
  }
  attr {
    key: "_class"
    value {
      list {
        s: "loc:@OptimizeLoss/learning_rate"
      }
    }
  }
  attr {
    key: "_output_shapes"
    value {
      list {
        shape {
        }
      }
    }
  }
  attr {
    key: "use_locking"
    value {
      b: true
    }
  }
  attr {
    key: "validate_shape"
    value {
      b: true
    }
  }
}
node {
  name: "save/RestoreV2_1/tensor_names"
  op: "Const"
  attr {
    key: "_output_shapes"
    value {
      list {
        shape {
          dim {
            size: 1
          }
        }
      }
    }
  }
  attr {
    key: "dtype"
    value {
      type: DT_STRING
    }
  }
  attr {
    key: "value"
    value {
      tensor {
        dtype: DT_STRING
        tensor_shape {
          dim {
            size: 1
          }
        }
        string_val: "dense/bias"
      }
    }
  }
}
node {
  name: "save/RestoreV2_1/shape_and_slices"
  op: "Const"
  attr {
    key: "_output_shapes"
    value {
      list {
        shape {
          dim {
            size: 1
          }
        }
      }
    }
  }
  attr {
    key: "dtype"
    value {
      type: DT_STRING
    }
  }
  attr {
    key: "value"
    value {
      tensor {
        dtype: DT_STRING
        tensor_shape {
          dim {
            size: 1
          }
        }
        string_val: ""
      }
    }
  }
}
node {
  name: "save/RestoreV2_1"
  op: "RestoreV2"
  input: "save/Const"
  input: "save/RestoreV2_1/tensor_names"
  input: "save/RestoreV2_1/shape_and_slices"
  attr {
    key: "_output_shapes"
    value {
      list {
        shape {
          unknown_rank: true
        }
      }
    }
  }
  attr {
    key: "dtypes"
    value {
      list {
        type: DT_FLOAT
      }
    }
  }
}
node {
  name: "save/Assign_1"
  op: "Assign"
  input: "dense/bias"
  input: "save/RestoreV2_1"
  attr {
    key: "T"
    value {
      type: DT_FLOAT
    }
  }
  attr {
    key: "_class"
    value {
      list {
        s: "loc:@dense/bias"
      }
    }
  }
  attr {
    key: "_output_shapes"
    value {
      list {
        shape {
          dim {
            size: 10
          }
        }
      }
    }
  }
  attr {
    key: "use_locking"
    value {
      b: true
    }
  }
  attr {
    key: "validate_shape"
    value {
      b: true
    }
  }
}
node {
  name: "save/RestoreV2_2/tensor_names"
  op: "Const"
  attr {
    key: "_output_shapes"
    value {
      list {
        shape {
          dim {
            size: 1
          }
        }
      }
    }
  }
  attr {
    key: "dtype"
    value {
      type: DT_STRING
    }
  }
  attr {
    key: "value"
    value {
      tensor {
        dtype: DT_STRING
        tensor_shape {
          dim {
            size: 1
          }
        }
        string_val: "dense/kernel"
      }
    }
  }
}
node {
  name: "save/RestoreV2_2/shape_and_slices"
  op: "Const"
  attr {
    key: "_output_shapes"
    value {
      list {
        shape {
          dim {
            size: 1
          }
        }
      }
    }
  }
  attr {
    key: "dtype"
    value {
      type: DT_STRING
    }
  }
  attr {
    key: "value"
    value {
      tensor {
        dtype: DT_STRING
        tensor_shape {
          dim {
            size: 1
          }
        }
        string_val: ""
      }
    }
  }
}
node {
  name: "save/RestoreV2_2"
  op: "RestoreV2"
  input: "save/Const"
  input: "save/RestoreV2_2/tensor_names"
  input: "save/RestoreV2_2/shape_and_slices"
  attr {
    key: "_output_shapes"
    value {
      list {
        shape {
          unknown_rank: true
        }
      }
    }
  }
  attr {
    key: "dtypes"
    value {
      list {
        type: DT_FLOAT
      }
    }
  }
}
node {
  name: "save/Assign_2"
  op: "Assign"
  input: "dense/kernel"
  input: "save/RestoreV2_2"
  attr {
    key: "T"
    value {
      type: DT_FLOAT
    }
  }
  attr {
    key: "_class"
    value {
      list {
        s: "loc:@dense/kernel"
      }
    }
  }
  attr {
    key: "_output_shapes"
    value {
      list {
        shape {
          dim {
            size: 7
          }
          dim {
            size: 10
          }
        }
      }
    }
  }
  attr {
    key: "use_locking"
    value {
      b: true
    }
  }
  attr {
    key: "validate_shape"
    value {
      b: true
    }
  }
}
node {
  name: "save/RestoreV2_3/tensor_names"
  op: "Const"
  attr {
    key: "_output_shapes"
    value {
      list {
        shape {
          dim {
            size: 1
          }
        }
      }
    }
  }
  attr {
    key: "dtype"
    value {
      type: DT_STRING
    }
  }
  attr {
    key: "value"
    value {
      tensor {
        dtype: DT_STRING
        tensor_shape {
          dim {
            size: 1
          }
        }
        string_val: "dense_1/bias"
      }
    }
  }
}
node {
  name: "save/RestoreV2_3/shape_and_slices"
  op: "Const"
  attr {
    key: "_output_shapes"
    value {
      list {
        shape {
          dim {
            size: 1
          }
        }
      }
    }
  }
  attr {
    key: "dtype"
    value {
      type: DT_STRING
    }
  }
  attr {
    key: "value"
    value {
      tensor {
        dtype: DT_STRING
        tensor_shape {
          dim {
            size: 1
          }
        }
        string_val: ""
      }
    }
  }
}
node {
  name: "save/RestoreV2_3"
  op: "RestoreV2"
  input: "save/Const"
  input: "save/RestoreV2_3/tensor_names"
  input: "save/RestoreV2_3/shape_and_slices"
  attr {
    key: "_output_shapes"
    value {
      list {
        shape {
          unknown_rank: true
        }
      }
    }
  }
  attr {
    key: "dtypes"
    value {
      list {
        type: DT_FLOAT
      }
    }
  }
}
node {
  name: "save/Assign_3"
  op: "Assign"
  input: "dense_1/bias"
  input: "save/RestoreV2_3"
  attr {
    key: "T"
    value {
      type: DT_FLOAT
    }
  }
  attr {
    key: "_class"
    value {
      list {
        s: "loc:@dense_1/bias"
      }
    }
  }
  attr {
    key: "_output_shapes"
    value {
      list {
        shape {
          dim {
            size: 10
          }
        }
      }
    }
  }
  attr {
    key: "use_locking"
    value {
      b: true
    }
  }
  attr {
    key: "validate_shape"
    value {
      b: true
    }
  }
}
node {
  name: "save/RestoreV2_4/tensor_names"
  op: "Const"
  attr {
    key: "_output_shapes"
    value {
      list {
        shape {
          dim {
            size: 1
          }
        }
      }
    }
  }
  attr {
    key: "dtype"
    value {
      type: DT_STRING
    }
  }
  attr {
    key: "value"
    value {
      tensor {
        dtype: DT_STRING
        tensor_shape {
          dim {
            size: 1
          }
        }
        string_val: "dense_1/kernel"
      }
    }
  }
}
node {
  name: "save/RestoreV2_4/shape_and_slices"
  op: "Const"
  attr {
    key: "_output_shapes"
    value {
      list {
        shape {
          dim {
            size: 1
          }
        }
      }
    }
  }
  attr {
    key: "dtype"
    value {
      type: DT_STRING
    }
  }
  attr {
    key: "value"
    value {
      tensor {
        dtype: DT_STRING
        tensor_shape {
          dim {
            size: 1
          }
        }
        string_val: ""
      }
    }
  }
}
node {
  name: "save/RestoreV2_4"
  op: "RestoreV2"
  input: "save/Const"
  input: "save/RestoreV2_4/tensor_names"
  input: "save/RestoreV2_4/shape_and_slices"
  attr {
    key: "_output_shapes"
    value {
      list {
        shape {
          unknown_rank: true
        }
      }
    }
  }
  attr {
    key: "dtypes"
    value {
      list {
        type: DT_FLOAT
      }
    }
  }
}
node {
  name: "save/Assign_4"
  op: "Assign"
  input: "dense_1/kernel"
  input: "save/RestoreV2_4"
  attr {
    key: "T"
    value {
      type: DT_FLOAT
    }
  }
  attr {
    key: "_class"
    value {
      list {
        s: "loc:@dense_1/kernel"
      }
    }
  }
  attr {
    key: "_output_shapes"
    value {
      list {
        shape {
          dim {
            size: 10
          }
          dim {
            size: 10
          }
        }
      }
    }
  }
  attr {
    key: "use_locking"
    value {
      b: true
    }
  }
  attr {
    key: "validate_shape"
    value {
      b: true
    }
  }
}
node {
  name: "save/RestoreV2_5/tensor_names"
  op: "Const"
  attr {
    key: "_output_shapes"
    value {
      list {
        shape {
          dim {
            size: 1
          }
        }
      }
    }
  }
  attr {
    key: "dtype"
    value {
      type: DT_STRING
    }
  }
  attr {
    key: "value"
    value {
      tensor {
        dtype: DT_STRING
        tensor_shape {
          dim {
            size: 1
          }
        }
        string_val: "dense_2/bias"
      }
    }
  }
}
node {
  name: "save/RestoreV2_5/shape_and_slices"
  op: "Const"
  attr {
    key: "_output_shapes"
    value {
      list {
        shape {
          dim {
            size: 1
          }
        }
      }
    }
  }
  attr {
    key: "dtype"
    value {
      type: DT_STRING
    }
  }
  attr {
    key: "value"
    value {
      tensor {
        dtype: DT_STRING
        tensor_shape {
          dim {
            size: 1
          }
        }
        string_val: ""
      }
    }
  }
}
node {
  name: "save/RestoreV2_5"
  op: "RestoreV2"
  input: "save/Const"
  input: "save/RestoreV2_5/tensor_names"
  input: "save/RestoreV2_5/shape_and_slices"
  attr {
    key: "_output_shapes"
    value {
      list {
        shape {
          unknown_rank: true
        }
      }
    }
  }
  attr {
    key: "dtypes"
    value {
      list {
        type: DT_FLOAT
      }
    }
  }
}
node {
  name: "save/Assign_5"
  op: "Assign"
  input: "dense_2/bias"
  input: "save/RestoreV2_5"
  attr {
    key: "T"
    value {
      type: DT_FLOAT
    }
  }
  attr {
    key: "_class"
    value {
      list {
        s: "loc:@dense_2/bias"
      }
    }
  }
  attr {
    key: "_output_shapes"
    value {
      list {
        shape {
          dim {
            size: 1
          }
        }
      }
    }
  }
  attr {
    key: "use_locking"
    value {
      b: true
    }
  }
  attr {
    key: "validate_shape"
    value {
      b: true
    }
  }
}
node {
  name: "save/RestoreV2_6/tensor_names"
  op: "Const"
  attr {
    key: "_output_shapes"
    value {
      list {
        shape {
          dim {
            size: 1
          }
        }
      }
    }
  }
  attr {
    key: "dtype"
    value {
      type: DT_STRING
    }
  }
  attr {
    key: "value"
    value {
      tensor {
        dtype: DT_STRING
        tensor_shape {
          dim {
            size: 1
          }
        }
        string_val: "dense_2/kernel"
      }
    }
  }
}
node {
  name: "save/RestoreV2_6/shape_and_slices"
  op: "Const"
  attr {
    key: "_output_shapes"
    value {
      list {
        shape {
          dim {
            size: 1
          }
        }
      }
    }
  }
  attr {
    key: "dtype"
    value {
      type: DT_STRING
    }
  }
  attr {
    key: "value"
    value {
      tensor {
        dtype: DT_STRING
        tensor_shape {
          dim {
            size: 1
          }
        }
        string_val: ""
      }
    }
  }
}
node {
  name: "save/RestoreV2_6"
  op: "RestoreV2"
  input: "save/Const"
  input: "save/RestoreV2_6/tensor_names"
  input: "save/RestoreV2_6/shape_and_slices"
  attr {
    key: "_output_shapes"
    value {
      list {
        shape {
          unknown_rank: true
        }
      }
    }
  }
  attr {
    key: "dtypes"
    value {
      list {
        type: DT_FLOAT
      }
    }
  }
}
node {
  name: "save/Assign_6"
  op: "Assign"
  input: "dense_2/kernel"
  input: "save/RestoreV2_6"
  attr {
    key: "T"
    value {
      type: DT_FLOAT
    }
  }
  attr {
    key: "_class"
    value {
      list {
        s: "loc:@dense_2/kernel"
      }
    }
  }
  attr {
    key: "_output_shapes"
    value {
      list {
        shape {
          dim {
            size: 10
          }
          dim {
            size: 1
          }
        }
      }
    }
  }
  attr {
    key: "use_locking"
    value {
      b: true
    }
  }
  attr {
    key: "validate_shape"
    value {
      b: true
    }
  }
}
node {
  name: "save/RestoreV2_7/tensor_names"
  op: "Const"
  attr {
    key: "_output_shapes"
    value {
      list {
        shape {
          dim {
            size: 1
          }
        }
      }
    }
  }
  attr {
    key: "dtype"
    value {
      type: DT_STRING
    }
  }
  attr {
    key: "value"
    value {
      tensor {
        dtype: DT_STRING
        tensor_shape {
          dim {
            size: 1
          }
        }
        string_val: "global_step"
      }
    }
  }
}
node {
  name: "save/RestoreV2_7/shape_and_slices"
  op: "Const"
  attr {
    key: "_output_shapes"
    value {
      list {
        shape {
          dim {
            size: 1
          }
        }
      }
    }
  }
  attr {
    key: "dtype"
    value {
      type: DT_STRING
    }
  }
  attr {
    key: "value"
    value {
      tensor {
        dtype: DT_STRING
        tensor_shape {
          dim {
            size: 1
          }
        }
        string_val: ""
      }
    }
  }
}
node {
  name: "save/RestoreV2_7"
  op: "RestoreV2"
  input: "save/Const"
  input: "save/RestoreV2_7/tensor_names"
  input: "save/RestoreV2_7/shape_and_slices"
  attr {
    key: "_output_shapes"
    value {
      list {
        shape {
          unknown_rank: true
        }
      }
    }
  }
  attr {
    key: "dtypes"
    value {
      list {
        type: DT_INT64
      }
    }
  }
}
node {
  name: "save/Assign_7"
  op: "Assign"
  input: "global_step"
  input: "save/RestoreV2_7"
  attr {
    key: "T"
    value {
      type: DT_INT64
    }
  }
  attr {
    key: "_class"
    value {
      list {
        s: "loc:@global_step"
      }
    }
  }
  attr {
    key: "_output_shapes"
    value {
      list {
        shape {
        }
      }
    }
  }
  attr {
    key: "use_locking"
    value {
      b: true
    }
  }
  attr {
    key: "validate_shape"
    value {
      b: true
    }
  }
}
node {
  name: "save/restore_shard"
  op: "NoOp"
  input: "^save/Assign"
  input: "^save/Assign_1"
  input: "^save/Assign_2"
  input: "^save/Assign_3"
  input: "^save/Assign_4"
  input: "^save/Assign_5"
  input: "^save/Assign_6"
  input: "^save/Assign_7"
}
node {
  name: "save/restore_all"
  op: "NoOp"
  input: "^save/restore_shard"
}
versions {
  producer: 24
}
